{
  "layers" : [
    {
      "pad_r" : 0,
      "fused_relu" : 0,
      "fused_tanh" : 0,
      "debug_info" : "FeatureExtractor\/MobilenetV3\/Conv\/Conv2D:0",
      "pad_fill_mode" : 0,
      "pad_b" : 0,
      "pad_l" : 0,
      "top" : "FeatureExtractor\/MobilenetV3\/Conv\/BatchNorm\/FusedBatchNorm:0",
      "K" : 3,
      "blob_biases" : 1,
      "stride_x" : 2,
      "name" : "FeatureExtractor\/MobilenetV3\/Conv\/Conv2D:0",
      "has_batch_norm" : 0,
      "type" : "convolution",
      "n_groups" : 1,
      "pad_t" : 0,
      "stride_y" : 2,
      "has_biases" : 1,
      "C" : 16,
      "bottom" : "image",
      "weights" : {
        "W_U8" : 3,
        "lut_to_float32" : 5
      },
      "Nx" : 3,
      "pad_mode" : 1,
      "pad_value" : 0,
      "Ny" : 3,
      "n_parallel" : 1
    },
    {
      "bottom" : "FeatureExtractor\/MobilenetV3\/Conv\/BatchNorm\/FusedBatchNorm:0",
      "alpha" : 3,
      "operation" : 0,
      "weights" : {

      },
      "fused_relu" : 0,
      "debug_info" : "FeatureExtractor\/MobilenetV3\/Conv\/hard_swish\/add:0",
      "top" : "FeatureExtractor\/MobilenetV3\/Conv\/hard_swish\/add:0",
      "type" : "elementwise",
      "name" : "FeatureExtractor\/MobilenetV3\/Conv\/hard_swish\/add:0",
      "beta" : 0
    },
    {
      "bottom" : "FeatureExtractor\/MobilenetV3\/Conv\/hard_swish\/add:0",
      "weights" : {

      },
      "mode" : 0,
      "debug_info" : "relu_FeatureExtractor\/MobilenetV3\/Conv\/hard_swish\/Relu6:0",
      "top" : "relu_FeatureExtractor\/MobilenetV3\/Conv\/hard_swish\/Relu6:0",
      "type" : "activation",
      "name" : "relu_FeatureExtractor\/MobilenetV3\/Conv\/hard_swish\/Relu6:0"
    },
    {
      "alpha" : -1,
      "bottom" : "relu_FeatureExtractor\/MobilenetV3\/Conv\/hard_swish\/Relu6:0",
      "weights" : {

      },
      "mode" : 6,
      "debug_info" : "relu_FeatureExtractor\/MobilenetV3\/Conv\/hard_swish\/Relu6:0_neg",
      "top" : "relu_FeatureExtractor\/MobilenetV3\/Conv\/hard_swish\/Relu6:0_neg",
      "type" : "activation",
      "name" : "relu_FeatureExtractor\/MobilenetV3\/Conv\/hard_swish\/Relu6:0_neg",
      "beta" : 0
    },
    {
      "bottom" : "relu_FeatureExtractor\/MobilenetV3\/Conv\/hard_swish\/Relu6:0_neg",
      "alpha" : -6,
      "operation" : 25,
      "weights" : {

      },
      "fused_relu" : 0,
      "debug_info" : "relu_FeatureExtractor\/MobilenetV3\/Conv\/hard_swish\/Relu6:0_clip",
      "top" : "relu_FeatureExtractor\/MobilenetV3\/Conv\/hard_swish\/Relu6:0_clip",
      "type" : "elementwise",
      "name" : "relu_FeatureExtractor\/MobilenetV3\/Conv\/hard_swish\/Relu6:0_clip",
      "beta" : 0
    },
    {
      "alpha" : -1,
      "bottom" : "relu_FeatureExtractor\/MobilenetV3\/Conv\/hard_swish\/Relu6:0_clip",
      "weights" : {

      },
      "mode" : 6,
      "debug_info" : "FeatureExtractor\/MobilenetV3\/Conv\/hard_swish\/Relu6:0",
      "top" : "FeatureExtractor\/MobilenetV3\/Conv\/hard_swish\/Relu6:0",
      "type" : "activation",
      "name" : "FeatureExtractor\/MobilenetV3\/Conv\/hard_swish\/Relu6:0",
      "beta" : 0
    },
    {
      "bottom" : "FeatureExtractor\/MobilenetV3\/Conv\/BatchNorm\/FusedBatchNorm:0,FeatureExtractor\/MobilenetV3\/Conv\/hard_swish\/Relu6:0",
      "alpha" : 1,
      "operation" : 1,
      "weights" : {

      },
      "fused_relu" : 0,
      "debug_info" : "FeatureExtractor\/MobilenetV3\/Conv\/hard_swish\/mul:0",
      "top" : "FeatureExtractor\/MobilenetV3\/Conv\/hard_swish\/mul:0",
      "type" : "elementwise",
      "name" : "FeatureExtractor\/MobilenetV3\/Conv\/hard_swish\/mul:0",
      "beta" : 0
    },
    {
      "bottom" : "FeatureExtractor\/MobilenetV3\/Conv\/hard_swish\/mul:0",
      "alpha" : 0.1666666716337204,
      "operation" : 1,
      "weights" : {

      },
      "fused_relu" : 0,
      "debug_info" : "FeatureExtractor\/MobilenetV3\/Conv\/hard_swish\/mul_1:0",
      "top" : "FeatureExtractor\/MobilenetV3\/Conv\/hard_swish\/mul_1:0",
      "type" : "elementwise",
      "name" : "FeatureExtractor\/MobilenetV3\/Conv\/hard_swish\/mul_1:0",
      "beta" : 0
    },
    {
      "pad_r" : 0,
      "fused_relu" : 1,
      "fused_tanh" : 0,
      "debug_info" : "FeatureExtractor\/MobilenetV3\/expanded_conv\/depthwise\/depthwise:0",
      "pad_fill_mode" : 0,
      "pad_b" : 0,
      "pad_l" : 0,
      "top" : "FeatureExtractor\/MobilenetV3\/expanded_conv\/depthwise\/Relu:0",
      "K" : 16,
      "blob_biases" : 7,
      "stride_x" : 2,
      "name" : "FeatureExtractor\/MobilenetV3\/expanded_conv\/depthwise\/depthwise:0",
      "has_batch_norm" : 0,
      "type" : "convolution",
      "n_groups" : 16,
      "pad_t" : 0,
      "stride_y" : 2,
      "has_biases" : 1,
      "C" : 16,
      "bottom" : "FeatureExtractor\/MobilenetV3\/Conv\/hard_swish\/mul_1:0",
      "weights" : {
        "W_U8" : 9,
        "lut_to_float32" : 11
      },
      "Nx" : 3,
      "pad_mode" : 1,
      "pad_value" : 0,
      "Ny" : 3,
      "n_parallel" : 1
    },
    {
      "pad_r" : 0,
      "debug_info" : "FeatureExtractor\/MobilenetV3\/expanded_conv\/squeeze_excite\/Mean:0",
      "pad_fill_mode" : 0,
      "pad_b" : 0,
      "pad_l" : 0,
      "size_x" : 75,
      "is_global" : 1,
      "top" : "FeatureExtractor\/MobilenetV3\/expanded_conv\/squeeze_excite\/Mean:0",
      "top_shape_style" : 0,
      "stride_x" : 1,
      "avg_or_max" : 0,
      "average_count_exclude_padding" : 0,
      "type" : "pool",
      "name" : "FeatureExtractor\/MobilenetV3\/expanded_conv\/squeeze_excite\/Mean:0",
      "pad_t" : 0,
      "stride_y" : 1,
      "bottom" : "FeatureExtractor\/MobilenetV3\/expanded_conv\/depthwise\/Relu:0",
      "weights" : {

      },
      "pad_mode" : 2,
      "size_y" : 75,
      "pad_value" : 0
    },
    {
      "pad_r" : 0,
      "fused_relu" : 1,
      "fused_tanh" : 0,
      "debug_info" : "FeatureExtractor\/MobilenetV3\/expanded_conv\/squeeze_excite\/Conv\/Conv2D:0",
      "pad_fill_mode" : 0,
      "pad_b" : 0,
      "pad_l" : 0,
      "top" : "FeatureExtractor\/MobilenetV3\/expanded_conv\/squeeze_excite\/Conv\/Relu:0",
      "K" : 16,
      "blob_biases" : 13,
      "name" : "FeatureExtractor\/MobilenetV3\/expanded_conv\/squeeze_excite\/Conv\/Conv2D:0",
      "has_batch_norm" : 0,
      "type" : "convolution",
      "n_groups" : 1,
      "pad_t" : 0,
      "has_biases" : 1,
      "C" : 8,
      "bottom" : "FeatureExtractor\/MobilenetV3\/expanded_conv\/squeeze_excite\/Mean:0",
      "weights" : {
        "W_U8" : 15,
        "lut_to_float32" : 17
      },
      "Nx" : 1,
      "pad_mode" : 1,
      "pad_value" : 0,
      "Ny" : 1,
      "n_parallel" : 1
    },
    {
      "pad_r" : 0,
      "fused_relu" : 0,
      "fused_tanh" : 0,
      "debug_info" : "FeatureExtractor\/MobilenetV3\/expanded_conv\/squeeze_excite\/Conv_1\/Conv2D:0",
      "pad_fill_mode" : 0,
      "pad_b" : 0,
      "pad_l" : 0,
      "top" : "FeatureExtractor\/MobilenetV3\/expanded_conv\/squeeze_excite\/Conv_1\/BiasAdd:0",
      "K" : 8,
      "blob_biases" : 19,
      "name" : "FeatureExtractor\/MobilenetV3\/expanded_conv\/squeeze_excite\/Conv_1\/Conv2D:0",
      "has_batch_norm" : 0,
      "type" : "convolution",
      "n_groups" : 1,
      "pad_t" : 0,
      "has_biases" : 1,
      "C" : 16,
      "bottom" : "FeatureExtractor\/MobilenetV3\/expanded_conv\/squeeze_excite\/Conv\/Relu:0",
      "weights" : {
        "W_U8" : 21,
        "lut_to_float32" : 23
      },
      "Nx" : 1,
      "pad_mode" : 1,
      "pad_value" : 0,
      "Ny" : 1,
      "n_parallel" : 1
    },
    {
      "bottom" : "FeatureExtractor\/MobilenetV3\/expanded_conv\/squeeze_excite\/Conv_1\/BiasAdd:0",
      "alpha" : 3,
      "operation" : 0,
      "weights" : {

      },
      "fused_relu" : 0,
      "debug_info" : "FeatureExtractor\/MobilenetV3\/expanded_conv\/squeeze_excite\/Conv_1\/add:0",
      "top" : "FeatureExtractor\/MobilenetV3\/expanded_conv\/squeeze_excite\/Conv_1\/add:0",
      "type" : "elementwise",
      "name" : "FeatureExtractor\/MobilenetV3\/expanded_conv\/squeeze_excite\/Conv_1\/add:0",
      "beta" : 0
    },
    {
      "bottom" : "FeatureExtractor\/MobilenetV3\/expanded_conv\/squeeze_excite\/Conv_1\/add:0",
      "weights" : {

      },
      "mode" : 0,
      "debug_info" : "relu_FeatureExtractor\/MobilenetV3\/expanded_conv\/squeeze_excite\/Conv_1\/Relu6:0",
      "top" : "relu_FeatureExtractor\/MobilenetV3\/expanded_conv\/squeeze_excite\/Conv_1\/Relu6:0",
      "type" : "activation",
      "name" : "relu_FeatureExtractor\/MobilenetV3\/expanded_conv\/squeeze_excite\/Conv_1\/Relu6:0"
    },
    {
      "alpha" : -1,
      "bottom" : "relu_FeatureExtractor\/MobilenetV3\/expanded_conv\/squeeze_excite\/Conv_1\/Relu6:0",
      "weights" : {

      },
      "mode" : 6,
      "debug_info" : "relu_FeatureExtractor\/MobilenetV3\/expanded_conv\/squeeze_excite\/Conv_1\/Relu6:0_neg",
      "top" : "relu_FeatureExtractor\/MobilenetV3\/expanded_conv\/squeeze_excite\/Conv_1\/Relu6:0_neg",
      "type" : "activation",
      "name" : "relu_FeatureExtractor\/MobilenetV3\/expanded_conv\/squeeze_excite\/Conv_1\/Relu6:0_neg",
      "beta" : 0
    },
    {
      "bottom" : "relu_FeatureExtractor\/MobilenetV3\/expanded_conv\/squeeze_excite\/Conv_1\/Relu6:0_neg",
      "alpha" : -6,
      "operation" : 25,
      "weights" : {

      },
      "fused_relu" : 0,
      "debug_info" : "relu_FeatureExtractor\/MobilenetV3\/expanded_conv\/squeeze_excite\/Conv_1\/Relu6:0_clip",
      "top" : "relu_FeatureExtractor\/MobilenetV3\/expanded_conv\/squeeze_excite\/Conv_1\/Relu6:0_clip",
      "type" : "elementwise",
      "name" : "relu_FeatureExtractor\/MobilenetV3\/expanded_conv\/squeeze_excite\/Conv_1\/Relu6:0_clip",
      "beta" : 0
    },
    {
      "alpha" : -1,
      "bottom" : "relu_FeatureExtractor\/MobilenetV3\/expanded_conv\/squeeze_excite\/Conv_1\/Relu6:0_clip",
      "weights" : {

      },
      "mode" : 6,
      "debug_info" : "FeatureExtractor\/MobilenetV3\/expanded_conv\/squeeze_excite\/Conv_1\/Relu6:0",
      "top" : "FeatureExtractor\/MobilenetV3\/expanded_conv\/squeeze_excite\/Conv_1\/Relu6:0",
      "type" : "activation",
      "name" : "FeatureExtractor\/MobilenetV3\/expanded_conv\/squeeze_excite\/Conv_1\/Relu6:0",
      "beta" : 0
    },
    {
      "bottom" : "FeatureExtractor\/MobilenetV3\/expanded_conv\/squeeze_excite\/Conv_1\/Relu6:0",
      "alpha" : 0.16666999459266663,
      "operation" : 1,
      "weights" : {

      },
      "fused_relu" : 0,
      "debug_info" : "FeatureExtractor\/MobilenetV3\/expanded_conv\/squeeze_excite\/Conv_1\/mul:0",
      "top" : "FeatureExtractor\/MobilenetV3\/expanded_conv\/squeeze_excite\/Conv_1\/mul:0",
      "type" : "elementwise",
      "name" : "FeatureExtractor\/MobilenetV3\/expanded_conv\/squeeze_excite\/Conv_1\/mul:0",
      "beta" : 0
    },
    {
      "bottom" : "FeatureExtractor\/MobilenetV3\/expanded_conv\/depthwise\/Relu:0,FeatureExtractor\/MobilenetV3\/expanded_conv\/squeeze_excite\/Conv_1\/mul:0",
      "alpha" : 1,
      "operation" : 1,
      "weights" : {

      },
      "fused_relu" : 0,
      "debug_info" : "FeatureExtractor\/MobilenetV3\/expanded_conv\/squeeze_excite\/mul:0",
      "top" : "FeatureExtractor\/MobilenetV3\/expanded_conv\/squeeze_excite\/mul:0",
      "type" : "elementwise",
      "name" : "FeatureExtractor\/MobilenetV3\/expanded_conv\/squeeze_excite\/mul:0",
      "beta" : 0
    },
    {
      "pad_r" : 0,
      "fused_relu" : 0,
      "fused_tanh" : 0,
      "debug_info" : "FeatureExtractor\/MobilenetV3\/expanded_conv\/project\/Conv2D:0",
      "pad_fill_mode" : 0,
      "pad_b" : 0,
      "pad_l" : 0,
      "top" : "FeatureExtractor\/MobilenetV3\/expanded_conv\/project\/BatchNorm\/FusedBatchNorm:0",
      "K" : 16,
      "blob_biases" : 25,
      "name" : "FeatureExtractor\/MobilenetV3\/expanded_conv\/project\/Conv2D:0",
      "has_batch_norm" : 0,
      "type" : "convolution",
      "n_groups" : 1,
      "pad_t" : 0,
      "has_biases" : 1,
      "C" : 16,
      "bottom" : "FeatureExtractor\/MobilenetV3\/expanded_conv\/squeeze_excite\/mul:0",
      "weights" : {
        "W_U8" : 27,
        "lut_to_float32" : 29
      },
      "Nx" : 1,
      "pad_mode" : 1,
      "pad_value" : 0,
      "Ny" : 1,
      "n_parallel" : 1
    },
    {
      "pad_r" : 0,
      "fused_relu" : 1,
      "fused_tanh" : 0,
      "debug_info" : "FeatureExtractor\/MobilenetV3\/expanded_conv_1\/expand\/Conv2D:0",
      "pad_fill_mode" : 0,
      "pad_b" : 0,
      "pad_l" : 0,
      "top" : "FeatureExtractor\/MobilenetV3\/expanded_conv_1\/expand\/Relu:0",
      "K" : 16,
      "blob_biases" : 31,
      "name" : "FeatureExtractor\/MobilenetV3\/expanded_conv_1\/expand\/Conv2D:0",
      "has_batch_norm" : 0,
      "type" : "convolution",
      "n_groups" : 1,
      "pad_t" : 0,
      "has_biases" : 1,
      "C" : 72,
      "bottom" : "FeatureExtractor\/MobilenetV3\/expanded_conv\/project\/BatchNorm\/FusedBatchNorm:0",
      "weights" : {
        "W_U8" : 33,
        "lut_to_float32" : 35
      },
      "Nx" : 1,
      "pad_mode" : 1,
      "pad_value" : 0,
      "Ny" : 1,
      "n_parallel" : 1
    },
    {
      "pad_r" : 0,
      "fused_relu" : 1,
      "fused_tanh" : 0,
      "debug_info" : "FeatureExtractor\/MobilenetV3\/expanded_conv_1\/depthwise\/depthwise:0",
      "pad_fill_mode" : 0,
      "pad_b" : 0,
      "pad_l" : 0,
      "top" : "FeatureExtractor\/MobilenetV3\/expanded_conv_1\/depthwise\/Relu:0",
      "K" : 72,
      "blob_biases" : 37,
      "stride_x" : 2,
      "name" : "FeatureExtractor\/MobilenetV3\/expanded_conv_1\/depthwise\/depthwise:0",
      "has_batch_norm" : 0,
      "type" : "convolution",
      "n_groups" : 72,
      "pad_t" : 0,
      "stride_y" : 2,
      "has_biases" : 1,
      "C" : 72,
      "bottom" : "FeatureExtractor\/MobilenetV3\/expanded_conv_1\/expand\/Relu:0",
      "weights" : {
        "W_U8" : 39,
        "lut_to_float32" : 41
      },
      "Nx" : 3,
      "pad_mode" : 1,
      "pad_value" : 0,
      "Ny" : 3,
      "n_parallel" : 1
    },
    {
      "pad_r" : 0,
      "fused_relu" : 0,
      "fused_tanh" : 0,
      "debug_info" : "FeatureExtractor\/MobilenetV3\/expanded_conv_1\/project\/Conv2D:0",
      "pad_fill_mode" : 0,
      "pad_b" : 0,
      "pad_l" : 0,
      "top" : "FeatureExtractor\/MobilenetV3\/expanded_conv_1\/project\/BatchNorm\/FusedBatchNorm:0",
      "K" : 72,
      "blob_biases" : 43,
      "name" : "FeatureExtractor\/MobilenetV3\/expanded_conv_1\/project\/Conv2D:0",
      "has_batch_norm" : 0,
      "type" : "convolution",
      "n_groups" : 1,
      "pad_t" : 0,
      "has_biases" : 1,
      "C" : 24,
      "bottom" : "FeatureExtractor\/MobilenetV3\/expanded_conv_1\/depthwise\/Relu:0",
      "weights" : {
        "W_U8" : 45,
        "lut_to_float32" : 47
      },
      "Nx" : 1,
      "pad_mode" : 1,
      "pad_value" : 0,
      "Ny" : 1,
      "n_parallel" : 1
    },
    {
      "pad_r" : 0,
      "fused_relu" : 1,
      "fused_tanh" : 0,
      "debug_info" : "FeatureExtractor\/MobilenetV3\/expanded_conv_2\/expand\/Conv2D:0",
      "pad_fill_mode" : 0,
      "pad_b" : 0,
      "pad_l" : 0,
      "top" : "FeatureExtractor\/MobilenetV3\/expanded_conv_2\/expand\/Relu:0",
      "K" : 24,
      "blob_biases" : 49,
      "name" : "FeatureExtractor\/MobilenetV3\/expanded_conv_2\/expand\/Conv2D:0",
      "has_batch_norm" : 0,
      "type" : "convolution",
      "n_groups" : 1,
      "pad_t" : 0,
      "has_biases" : 1,
      "C" : 88,
      "bottom" : "FeatureExtractor\/MobilenetV3\/expanded_conv_1\/project\/BatchNorm\/FusedBatchNorm:0",
      "weights" : {
        "W_U8" : 51,
        "lut_to_float32" : 53
      },
      "Nx" : 1,
      "pad_mode" : 1,
      "pad_value" : 0,
      "Ny" : 1,
      "n_parallel" : 1
    },
    {
      "pad_r" : 0,
      "fused_relu" : 1,
      "fused_tanh" : 0,
      "debug_info" : "FeatureExtractor\/MobilenetV3\/expanded_conv_2\/depthwise\/depthwise:0",
      "pad_fill_mode" : 0,
      "pad_b" : 0,
      "pad_l" : 0,
      "top" : "FeatureExtractor\/MobilenetV3\/expanded_conv_2\/depthwise\/Relu:0",
      "K" : 88,
      "blob_biases" : 55,
      "name" : "FeatureExtractor\/MobilenetV3\/expanded_conv_2\/depthwise\/depthwise:0",
      "has_batch_norm" : 0,
      "type" : "convolution",
      "n_groups" : 88,
      "pad_t" : 0,
      "has_biases" : 1,
      "C" : 88,
      "bottom" : "FeatureExtractor\/MobilenetV3\/expanded_conv_2\/expand\/Relu:0",
      "weights" : {
        "W_U8" : 57,
        "lut_to_float32" : 59
      },
      "Nx" : 3,
      "pad_mode" : 1,
      "pad_value" : 0,
      "Ny" : 3,
      "n_parallel" : 1
    },
    {
      "pad_r" : 0,
      "fused_relu" : 0,
      "fused_tanh" : 0,
      "debug_info" : "FeatureExtractor\/MobilenetV3\/expanded_conv_2\/project\/Conv2D:0",
      "pad_fill_mode" : 0,
      "pad_b" : 0,
      "pad_l" : 0,
      "top" : "FeatureExtractor\/MobilenetV3\/expanded_conv_2\/project\/BatchNorm\/FusedBatchNorm:0",
      "K" : 88,
      "blob_biases" : 61,
      "name" : "FeatureExtractor\/MobilenetV3\/expanded_conv_2\/project\/Conv2D:0",
      "has_batch_norm" : 0,
      "type" : "convolution",
      "n_groups" : 1,
      "pad_t" : 0,
      "has_biases" : 1,
      "C" : 24,
      "bottom" : "FeatureExtractor\/MobilenetV3\/expanded_conv_2\/depthwise\/Relu:0",
      "weights" : {
        "W_U8" : 63,
        "lut_to_float32" : 65
      },
      "Nx" : 1,
      "pad_mode" : 1,
      "pad_value" : 0,
      "Ny" : 1,
      "n_parallel" : 1
    },
    {
      "bottom" : "FeatureExtractor\/MobilenetV3\/expanded_conv_2\/project\/BatchNorm\/FusedBatchNorm:0,FeatureExtractor\/MobilenetV3\/expanded_conv_1\/project\/BatchNorm\/FusedBatchNorm:0",
      "alpha" : 1,
      "operation" : 0,
      "weights" : {

      },
      "fused_relu" : 0,
      "debug_info" : "FeatureExtractor\/MobilenetV3\/expanded_conv_2\/add:0",
      "top" : "FeatureExtractor\/MobilenetV3\/expanded_conv_2\/add:0",
      "type" : "elementwise",
      "name" : "FeatureExtractor\/MobilenetV3\/expanded_conv_2\/add:0",
      "beta" : 0
    },
    {
      "pad_r" : 0,
      "fused_relu" : 0,
      "fused_tanh" : 0,
      "debug_info" : "FeatureExtractor\/MobilenetV3\/expanded_conv_3\/expand\/Conv2D:0",
      "pad_fill_mode" : 0,
      "pad_b" : 0,
      "pad_l" : 0,
      "top" : "FeatureExtractor\/MobilenetV3\/expanded_conv_3\/expand\/BatchNorm\/FusedBatchNorm:0",
      "K" : 24,
      "blob_biases" : 67,
      "name" : "FeatureExtractor\/MobilenetV3\/expanded_conv_3\/expand\/Conv2D:0",
      "has_batch_norm" : 0,
      "type" : "convolution",
      "n_groups" : 1,
      "pad_t" : 0,
      "has_biases" : 1,
      "C" : 96,
      "bottom" : "FeatureExtractor\/MobilenetV3\/expanded_conv_2\/add:0",
      "weights" : {
        "W_U8" : 69,
        "lut_to_float32" : 71
      },
      "Nx" : 1,
      "pad_mode" : 1,
      "pad_value" : 0,
      "Ny" : 1,
      "n_parallel" : 1
    },
    {
      "bottom" : "FeatureExtractor\/MobilenetV3\/expanded_conv_3\/expand\/BatchNorm\/FusedBatchNorm:0",
      "alpha" : 3,
      "operation" : 0,
      "weights" : {

      },
      "fused_relu" : 0,
      "debug_info" : "FeatureExtractor\/MobilenetV3\/expanded_conv_3\/expand\/hard_swish\/add:0",
      "top" : "FeatureExtractor\/MobilenetV3\/expanded_conv_3\/expand\/hard_swish\/add:0",
      "type" : "elementwise",
      "name" : "FeatureExtractor\/MobilenetV3\/expanded_conv_3\/expand\/hard_swish\/add:0",
      "beta" : 0
    },
    {
      "bottom" : "FeatureExtractor\/MobilenetV3\/expanded_conv_3\/expand\/hard_swish\/add:0",
      "weights" : {

      },
      "mode" : 0,
      "debug_info" : "relu_FeatureExtractor\/MobilenetV3\/expanded_conv_3\/expand\/hard_swish\/Relu6:0",
      "top" : "relu_FeatureExtractor\/MobilenetV3\/expanded_conv_3\/expand\/hard_swish\/Relu6:0",
      "type" : "activation",
      "name" : "relu_FeatureExtractor\/MobilenetV3\/expanded_conv_3\/expand\/hard_swish\/Relu6:0"
    },
    {
      "alpha" : -1,
      "bottom" : "relu_FeatureExtractor\/MobilenetV3\/expanded_conv_3\/expand\/hard_swish\/Relu6:0",
      "weights" : {

      },
      "mode" : 6,
      "debug_info" : "relu_FeatureExtractor\/MobilenetV3\/expanded_conv_3\/expand\/hard_swish\/Relu6:0_neg",
      "top" : "relu_FeatureExtractor\/MobilenetV3\/expanded_conv_3\/expand\/hard_swish\/Relu6:0_neg",
      "type" : "activation",
      "name" : "relu_FeatureExtractor\/MobilenetV3\/expanded_conv_3\/expand\/hard_swish\/Relu6:0_neg",
      "beta" : 0
    },
    {
      "bottom" : "relu_FeatureExtractor\/MobilenetV3\/expanded_conv_3\/expand\/hard_swish\/Relu6:0_neg",
      "alpha" : -6,
      "operation" : 25,
      "weights" : {

      },
      "fused_relu" : 0,
      "debug_info" : "relu_FeatureExtractor\/MobilenetV3\/expanded_conv_3\/expand\/hard_swish\/Relu6:0_clip",
      "top" : "relu_FeatureExtractor\/MobilenetV3\/expanded_conv_3\/expand\/hard_swish\/Relu6:0_clip",
      "type" : "elementwise",
      "name" : "relu_FeatureExtractor\/MobilenetV3\/expanded_conv_3\/expand\/hard_swish\/Relu6:0_clip",
      "beta" : 0
    },
    {
      "alpha" : -1,
      "bottom" : "relu_FeatureExtractor\/MobilenetV3\/expanded_conv_3\/expand\/hard_swish\/Relu6:0_clip",
      "weights" : {

      },
      "mode" : 6,
      "debug_info" : "FeatureExtractor\/MobilenetV3\/expanded_conv_3\/expand\/hard_swish\/Relu6:0",
      "top" : "FeatureExtractor\/MobilenetV3\/expanded_conv_3\/expand\/hard_swish\/Relu6:0",
      "type" : "activation",
      "name" : "FeatureExtractor\/MobilenetV3\/expanded_conv_3\/expand\/hard_swish\/Relu6:0",
      "beta" : 0
    },
    {
      "bottom" : "FeatureExtractor\/MobilenetV3\/expanded_conv_3\/expand\/BatchNorm\/FusedBatchNorm:0,FeatureExtractor\/MobilenetV3\/expanded_conv_3\/expand\/hard_swish\/Relu6:0",
      "alpha" : 1,
      "operation" : 1,
      "weights" : {

      },
      "fused_relu" : 0,
      "debug_info" : "FeatureExtractor\/MobilenetV3\/expanded_conv_3\/expand\/hard_swish\/mul:0",
      "top" : "FeatureExtractor\/MobilenetV3\/expanded_conv_3\/expand\/hard_swish\/mul:0",
      "type" : "elementwise",
      "name" : "FeatureExtractor\/MobilenetV3\/expanded_conv_3\/expand\/hard_swish\/mul:0",
      "beta" : 0
    },
    {
      "bottom" : "FeatureExtractor\/MobilenetV3\/expanded_conv_3\/expand\/hard_swish\/mul:0",
      "alpha" : 0.1666666716337204,
      "operation" : 1,
      "weights" : {

      },
      "fused_relu" : 0,
      "debug_info" : "FeatureExtractor\/MobilenetV3\/expanded_conv_3\/expand\/hard_swish\/mul_1:0",
      "top" : "FeatureExtractor\/MobilenetV3\/expanded_conv_3\/expand\/hard_swish\/mul_1:0",
      "type" : "elementwise",
      "name" : "FeatureExtractor\/MobilenetV3\/expanded_conv_3\/expand\/hard_swish\/mul_1:0",
      "beta" : 0
    },
    {
      "pad_r" : 0,
      "fused_relu" : 0,
      "fused_tanh" : 0,
      "debug_info" : "FeatureExtractor\/MobilenetV3\/expanded_conv_3\/depthwise\/depthwise:0",
      "pad_fill_mode" : 0,
      "pad_b" : 0,
      "pad_l" : 0,
      "top" : "FeatureExtractor\/MobilenetV3\/expanded_conv_3\/depthwise\/BatchNorm\/FusedBatchNorm:0",
      "K" : 96,
      "blob_biases" : 73,
      "stride_x" : 2,
      "name" : "FeatureExtractor\/MobilenetV3\/expanded_conv_3\/depthwise\/depthwise:0",
      "has_batch_norm" : 0,
      "type" : "convolution",
      "n_groups" : 96,
      "pad_t" : 0,
      "stride_y" : 2,
      "has_biases" : 1,
      "C" : 96,
      "bottom" : "FeatureExtractor\/MobilenetV3\/expanded_conv_3\/expand\/hard_swish\/mul_1:0",
      "weights" : {
        "W_U8" : 75,
        "lut_to_float32" : 77
      },
      "Nx" : 5,
      "pad_mode" : 1,
      "pad_value" : 0,
      "Ny" : 5,
      "n_parallel" : 1
    },
    {
      "bottom" : "FeatureExtractor\/MobilenetV3\/expanded_conv_3\/depthwise\/BatchNorm\/FusedBatchNorm:0",
      "alpha" : 3,
      "operation" : 0,
      "weights" : {

      },
      "fused_relu" : 0,
      "debug_info" : "FeatureExtractor\/MobilenetV3\/expanded_conv_3\/depthwise\/hard_swish\/add:0",
      "top" : "FeatureExtractor\/MobilenetV3\/expanded_conv_3\/depthwise\/hard_swish\/add:0",
      "type" : "elementwise",
      "name" : "FeatureExtractor\/MobilenetV3\/expanded_conv_3\/depthwise\/hard_swish\/add:0",
      "beta" : 0
    },
    {
      "bottom" : "FeatureExtractor\/MobilenetV3\/expanded_conv_3\/depthwise\/hard_swish\/add:0",
      "weights" : {

      },
      "mode" : 0,
      "debug_info" : "relu_FeatureExtractor\/MobilenetV3\/expanded_conv_3\/depthwise\/hard_swish\/Relu6:0",
      "top" : "relu_FeatureExtractor\/MobilenetV3\/expanded_conv_3\/depthwise\/hard_swish\/Relu6:0",
      "type" : "activation",
      "name" : "relu_FeatureExtractor\/MobilenetV3\/expanded_conv_3\/depthwise\/hard_swish\/Relu6:0"
    },
    {
      "alpha" : -1,
      "bottom" : "relu_FeatureExtractor\/MobilenetV3\/expanded_conv_3\/depthwise\/hard_swish\/Relu6:0",
      "weights" : {

      },
      "mode" : 6,
      "debug_info" : "relu_FeatureExtractor\/MobilenetV3\/expanded_conv_3\/depthwise\/hard_swish\/Relu6:0_neg",
      "top" : "relu_FeatureExtractor\/MobilenetV3\/expanded_conv_3\/depthwise\/hard_swish\/Relu6:0_neg",
      "type" : "activation",
      "name" : "relu_FeatureExtractor\/MobilenetV3\/expanded_conv_3\/depthwise\/hard_swish\/Relu6:0_neg",
      "beta" : 0
    },
    {
      "bottom" : "relu_FeatureExtractor\/MobilenetV3\/expanded_conv_3\/depthwise\/hard_swish\/Relu6:0_neg",
      "alpha" : -6,
      "operation" : 25,
      "weights" : {

      },
      "fused_relu" : 0,
      "debug_info" : "relu_FeatureExtractor\/MobilenetV3\/expanded_conv_3\/depthwise\/hard_swish\/Relu6:0_clip",
      "top" : "relu_FeatureExtractor\/MobilenetV3\/expanded_conv_3\/depthwise\/hard_swish\/Relu6:0_clip",
      "type" : "elementwise",
      "name" : "relu_FeatureExtractor\/MobilenetV3\/expanded_conv_3\/depthwise\/hard_swish\/Relu6:0_clip",
      "beta" : 0
    },
    {
      "alpha" : -1,
      "bottom" : "relu_FeatureExtractor\/MobilenetV3\/expanded_conv_3\/depthwise\/hard_swish\/Relu6:0_clip",
      "weights" : {

      },
      "mode" : 6,
      "debug_info" : "FeatureExtractor\/MobilenetV3\/expanded_conv_3\/depthwise\/hard_swish\/Relu6:0",
      "top" : "FeatureExtractor\/MobilenetV3\/expanded_conv_3\/depthwise\/hard_swish\/Relu6:0",
      "type" : "activation",
      "name" : "FeatureExtractor\/MobilenetV3\/expanded_conv_3\/depthwise\/hard_swish\/Relu6:0",
      "beta" : 0
    },
    {
      "bottom" : "FeatureExtractor\/MobilenetV3\/expanded_conv_3\/depthwise\/BatchNorm\/FusedBatchNorm:0,FeatureExtractor\/MobilenetV3\/expanded_conv_3\/depthwise\/hard_swish\/Relu6:0",
      "alpha" : 1,
      "operation" : 1,
      "weights" : {

      },
      "fused_relu" : 0,
      "debug_info" : "FeatureExtractor\/MobilenetV3\/expanded_conv_3\/depthwise\/hard_swish\/mul:0",
      "top" : "FeatureExtractor\/MobilenetV3\/expanded_conv_3\/depthwise\/hard_swish\/mul:0",
      "type" : "elementwise",
      "name" : "FeatureExtractor\/MobilenetV3\/expanded_conv_3\/depthwise\/hard_swish\/mul:0",
      "beta" : 0
    },
    {
      "bottom" : "FeatureExtractor\/MobilenetV3\/expanded_conv_3\/depthwise\/hard_swish\/mul:0",
      "alpha" : 0.1666666716337204,
      "operation" : 1,
      "weights" : {

      },
      "fused_relu" : 0,
      "debug_info" : "FeatureExtractor\/MobilenetV3\/expanded_conv_3\/depthwise\/hard_swish\/mul_1:0",
      "top" : "FeatureExtractor\/MobilenetV3\/expanded_conv_3\/depthwise\/hard_swish\/mul_1:0",
      "type" : "elementwise",
      "name" : "FeatureExtractor\/MobilenetV3\/expanded_conv_3\/depthwise\/hard_swish\/mul_1:0",
      "beta" : 0
    },
    {
      "pad_r" : 0,
      "debug_info" : "FeatureExtractor\/MobilenetV3\/expanded_conv_3\/squeeze_excite\/Mean:0",
      "pad_fill_mode" : 0,
      "pad_b" : 0,
      "pad_l" : 0,
      "size_x" : 19,
      "is_global" : 1,
      "top" : "FeatureExtractor\/MobilenetV3\/expanded_conv_3\/squeeze_excite\/Mean:0",
      "top_shape_style" : 0,
      "stride_x" : 1,
      "avg_or_max" : 0,
      "average_count_exclude_padding" : 0,
      "type" : "pool",
      "name" : "FeatureExtractor\/MobilenetV3\/expanded_conv_3\/squeeze_excite\/Mean:0",
      "pad_t" : 0,
      "stride_y" : 1,
      "bottom" : "FeatureExtractor\/MobilenetV3\/expanded_conv_3\/depthwise\/hard_swish\/mul_1:0",
      "weights" : {

      },
      "pad_mode" : 2,
      "size_y" : 19,
      "pad_value" : 0
    },
    {
      "pad_r" : 0,
      "fused_relu" : 1,
      "fused_tanh" : 0,
      "debug_info" : "FeatureExtractor\/MobilenetV3\/expanded_conv_3\/squeeze_excite\/Conv\/Conv2D:0",
      "pad_fill_mode" : 0,
      "pad_b" : 0,
      "pad_l" : 0,
      "top" : "FeatureExtractor\/MobilenetV3\/expanded_conv_3\/squeeze_excite\/Conv\/Relu:0",
      "K" : 96,
      "blob_biases" : 79,
      "name" : "FeatureExtractor\/MobilenetV3\/expanded_conv_3\/squeeze_excite\/Conv\/Conv2D:0",
      "has_batch_norm" : 0,
      "type" : "convolution",
      "n_groups" : 1,
      "pad_t" : 0,
      "has_biases" : 1,
      "C" : 24,
      "bottom" : "FeatureExtractor\/MobilenetV3\/expanded_conv_3\/squeeze_excite\/Mean:0",
      "weights" : {
        "W_U8" : 81,
        "lut_to_float32" : 83
      },
      "Nx" : 1,
      "pad_mode" : 1,
      "pad_value" : 0,
      "Ny" : 1,
      "n_parallel" : 1
    },
    {
      "pad_r" : 0,
      "fused_relu" : 0,
      "fused_tanh" : 0,
      "debug_info" : "FeatureExtractor\/MobilenetV3\/expanded_conv_3\/squeeze_excite\/Conv_1\/Conv2D:0",
      "pad_fill_mode" : 0,
      "pad_b" : 0,
      "pad_l" : 0,
      "top" : "FeatureExtractor\/MobilenetV3\/expanded_conv_3\/squeeze_excite\/Conv_1\/BiasAdd:0",
      "K" : 24,
      "blob_biases" : 85,
      "name" : "FeatureExtractor\/MobilenetV3\/expanded_conv_3\/squeeze_excite\/Conv_1\/Conv2D:0",
      "has_batch_norm" : 0,
      "type" : "convolution",
      "n_groups" : 1,
      "pad_t" : 0,
      "has_biases" : 1,
      "C" : 96,
      "bottom" : "FeatureExtractor\/MobilenetV3\/expanded_conv_3\/squeeze_excite\/Conv\/Relu:0",
      "weights" : {
        "W_U8" : 87,
        "lut_to_float32" : 89
      },
      "Nx" : 1,
      "pad_mode" : 1,
      "pad_value" : 0,
      "Ny" : 1,
      "n_parallel" : 1
    },
    {
      "bottom" : "FeatureExtractor\/MobilenetV3\/expanded_conv_3\/squeeze_excite\/Conv_1\/BiasAdd:0",
      "alpha" : 3,
      "operation" : 0,
      "weights" : {

      },
      "fused_relu" : 0,
      "debug_info" : "FeatureExtractor\/MobilenetV3\/expanded_conv_3\/squeeze_excite\/Conv_1\/add:0",
      "top" : "FeatureExtractor\/MobilenetV3\/expanded_conv_3\/squeeze_excite\/Conv_1\/add:0",
      "type" : "elementwise",
      "name" : "FeatureExtractor\/MobilenetV3\/expanded_conv_3\/squeeze_excite\/Conv_1\/add:0",
      "beta" : 0
    },
    {
      "bottom" : "FeatureExtractor\/MobilenetV3\/expanded_conv_3\/squeeze_excite\/Conv_1\/add:0",
      "weights" : {

      },
      "mode" : 0,
      "debug_info" : "relu_FeatureExtractor\/MobilenetV3\/expanded_conv_3\/squeeze_excite\/Conv_1\/Relu6:0",
      "top" : "relu_FeatureExtractor\/MobilenetV3\/expanded_conv_3\/squeeze_excite\/Conv_1\/Relu6:0",
      "type" : "activation",
      "name" : "relu_FeatureExtractor\/MobilenetV3\/expanded_conv_3\/squeeze_excite\/Conv_1\/Relu6:0"
    },
    {
      "alpha" : -1,
      "bottom" : "relu_FeatureExtractor\/MobilenetV3\/expanded_conv_3\/squeeze_excite\/Conv_1\/Relu6:0",
      "weights" : {

      },
      "mode" : 6,
      "debug_info" : "relu_FeatureExtractor\/MobilenetV3\/expanded_conv_3\/squeeze_excite\/Conv_1\/Relu6:0_neg",
      "top" : "relu_FeatureExtractor\/MobilenetV3\/expanded_conv_3\/squeeze_excite\/Conv_1\/Relu6:0_neg",
      "type" : "activation",
      "name" : "relu_FeatureExtractor\/MobilenetV3\/expanded_conv_3\/squeeze_excite\/Conv_1\/Relu6:0_neg",
      "beta" : 0
    },
    {
      "bottom" : "relu_FeatureExtractor\/MobilenetV3\/expanded_conv_3\/squeeze_excite\/Conv_1\/Relu6:0_neg",
      "alpha" : -6,
      "operation" : 25,
      "weights" : {

      },
      "fused_relu" : 0,
      "debug_info" : "relu_FeatureExtractor\/MobilenetV3\/expanded_conv_3\/squeeze_excite\/Conv_1\/Relu6:0_clip",
      "top" : "relu_FeatureExtractor\/MobilenetV3\/expanded_conv_3\/squeeze_excite\/Conv_1\/Relu6:0_clip",
      "type" : "elementwise",
      "name" : "relu_FeatureExtractor\/MobilenetV3\/expanded_conv_3\/squeeze_excite\/Conv_1\/Relu6:0_clip",
      "beta" : 0
    },
    {
      "alpha" : -1,
      "bottom" : "relu_FeatureExtractor\/MobilenetV3\/expanded_conv_3\/squeeze_excite\/Conv_1\/Relu6:0_clip",
      "weights" : {

      },
      "mode" : 6,
      "debug_info" : "FeatureExtractor\/MobilenetV3\/expanded_conv_3\/squeeze_excite\/Conv_1\/Relu6:0",
      "top" : "FeatureExtractor\/MobilenetV3\/expanded_conv_3\/squeeze_excite\/Conv_1\/Relu6:0",
      "type" : "activation",
      "name" : "FeatureExtractor\/MobilenetV3\/expanded_conv_3\/squeeze_excite\/Conv_1\/Relu6:0",
      "beta" : 0
    },
    {
      "bottom" : "FeatureExtractor\/MobilenetV3\/expanded_conv_3\/squeeze_excite\/Conv_1\/Relu6:0",
      "alpha" : 0.16666999459266663,
      "operation" : 1,
      "weights" : {

      },
      "fused_relu" : 0,
      "debug_info" : "FeatureExtractor\/MobilenetV3\/expanded_conv_3\/squeeze_excite\/Conv_1\/mul:0",
      "top" : "FeatureExtractor\/MobilenetV3\/expanded_conv_3\/squeeze_excite\/Conv_1\/mul:0",
      "type" : "elementwise",
      "name" : "FeatureExtractor\/MobilenetV3\/expanded_conv_3\/squeeze_excite\/Conv_1\/mul:0",
      "beta" : 0
    },
    {
      "bottom" : "FeatureExtractor\/MobilenetV3\/expanded_conv_3\/depthwise\/hard_swish\/mul_1:0,FeatureExtractor\/MobilenetV3\/expanded_conv_3\/squeeze_excite\/Conv_1\/mul:0",
      "alpha" : 1,
      "operation" : 1,
      "weights" : {

      },
      "fused_relu" : 0,
      "debug_info" : "FeatureExtractor\/MobilenetV3\/expanded_conv_3\/squeeze_excite\/mul:0",
      "top" : "FeatureExtractor\/MobilenetV3\/expanded_conv_3\/squeeze_excite\/mul:0",
      "type" : "elementwise",
      "name" : "FeatureExtractor\/MobilenetV3\/expanded_conv_3\/squeeze_excite\/mul:0",
      "beta" : 0
    },
    {
      "pad_r" : 0,
      "fused_relu" : 0,
      "fused_tanh" : 0,
      "debug_info" : "FeatureExtractor\/MobilenetV3\/expanded_conv_3\/project\/Conv2D:0",
      "pad_fill_mode" : 0,
      "pad_b" : 0,
      "pad_l" : 0,
      "top" : "FeatureExtractor\/MobilenetV3\/expanded_conv_3\/project\/BatchNorm\/FusedBatchNorm:0",
      "K" : 96,
      "blob_biases" : 91,
      "name" : "FeatureExtractor\/MobilenetV3\/expanded_conv_3\/project\/Conv2D:0",
      "has_batch_norm" : 0,
      "type" : "convolution",
      "n_groups" : 1,
      "pad_t" : 0,
      "has_biases" : 1,
      "C" : 40,
      "bottom" : "FeatureExtractor\/MobilenetV3\/expanded_conv_3\/squeeze_excite\/mul:0",
      "weights" : {
        "W_U8" : 93,
        "lut_to_float32" : 95
      },
      "Nx" : 1,
      "pad_mode" : 1,
      "pad_value" : 0,
      "Ny" : 1,
      "n_parallel" : 1
    },
    {
      "pad_r" : 0,
      "fused_relu" : 0,
      "fused_tanh" : 0,
      "debug_info" : "FeatureExtractor\/MobilenetV3\/expanded_conv_4\/expand\/Conv2D:0",
      "pad_fill_mode" : 0,
      "pad_b" : 0,
      "pad_l" : 0,
      "top" : "FeatureExtractor\/MobilenetV3\/expanded_conv_4\/expand\/BatchNorm\/FusedBatchNorm:0",
      "K" : 40,
      "blob_biases" : 97,
      "name" : "FeatureExtractor\/MobilenetV3\/expanded_conv_4\/expand\/Conv2D:0",
      "has_batch_norm" : 0,
      "type" : "convolution",
      "n_groups" : 1,
      "pad_t" : 0,
      "has_biases" : 1,
      "C" : 240,
      "bottom" : "FeatureExtractor\/MobilenetV3\/expanded_conv_3\/project\/BatchNorm\/FusedBatchNorm:0",
      "weights" : {
        "W_U8" : 99,
        "lut_to_float32" : 101
      },
      "Nx" : 1,
      "pad_mode" : 1,
      "pad_value" : 0,
      "Ny" : 1,
      "n_parallel" : 1
    },
    {
      "bottom" : "FeatureExtractor\/MobilenetV3\/expanded_conv_4\/expand\/BatchNorm\/FusedBatchNorm:0",
      "alpha" : 3,
      "operation" : 0,
      "weights" : {

      },
      "fused_relu" : 0,
      "debug_info" : "FeatureExtractor\/MobilenetV3\/expanded_conv_4\/expand\/hard_swish\/add:0",
      "top" : "FeatureExtractor\/MobilenetV3\/expanded_conv_4\/expand\/hard_swish\/add:0",
      "type" : "elementwise",
      "name" : "FeatureExtractor\/MobilenetV3\/expanded_conv_4\/expand\/hard_swish\/add:0",
      "beta" : 0
    },
    {
      "bottom" : "FeatureExtractor\/MobilenetV3\/expanded_conv_4\/expand\/hard_swish\/add:0",
      "weights" : {

      },
      "mode" : 0,
      "debug_info" : "relu_FeatureExtractor\/MobilenetV3\/expanded_conv_4\/expand\/hard_swish\/Relu6:0",
      "top" : "relu_FeatureExtractor\/MobilenetV3\/expanded_conv_4\/expand\/hard_swish\/Relu6:0",
      "type" : "activation",
      "name" : "relu_FeatureExtractor\/MobilenetV3\/expanded_conv_4\/expand\/hard_swish\/Relu6:0"
    },
    {
      "alpha" : -1,
      "bottom" : "relu_FeatureExtractor\/MobilenetV3\/expanded_conv_4\/expand\/hard_swish\/Relu6:0",
      "weights" : {

      },
      "mode" : 6,
      "debug_info" : "relu_FeatureExtractor\/MobilenetV3\/expanded_conv_4\/expand\/hard_swish\/Relu6:0_neg",
      "top" : "relu_FeatureExtractor\/MobilenetV3\/expanded_conv_4\/expand\/hard_swish\/Relu6:0_neg",
      "type" : "activation",
      "name" : "relu_FeatureExtractor\/MobilenetV3\/expanded_conv_4\/expand\/hard_swish\/Relu6:0_neg",
      "beta" : 0
    },
    {
      "bottom" : "relu_FeatureExtractor\/MobilenetV3\/expanded_conv_4\/expand\/hard_swish\/Relu6:0_neg",
      "alpha" : -6,
      "operation" : 25,
      "weights" : {

      },
      "fused_relu" : 0,
      "debug_info" : "relu_FeatureExtractor\/MobilenetV3\/expanded_conv_4\/expand\/hard_swish\/Relu6:0_clip",
      "top" : "relu_FeatureExtractor\/MobilenetV3\/expanded_conv_4\/expand\/hard_swish\/Relu6:0_clip",
      "type" : "elementwise",
      "name" : "relu_FeatureExtractor\/MobilenetV3\/expanded_conv_4\/expand\/hard_swish\/Relu6:0_clip",
      "beta" : 0
    },
    {
      "alpha" : -1,
      "bottom" : "relu_FeatureExtractor\/MobilenetV3\/expanded_conv_4\/expand\/hard_swish\/Relu6:0_clip",
      "weights" : {

      },
      "mode" : 6,
      "debug_info" : "FeatureExtractor\/MobilenetV3\/expanded_conv_4\/expand\/hard_swish\/Relu6:0",
      "top" : "FeatureExtractor\/MobilenetV3\/expanded_conv_4\/expand\/hard_swish\/Relu6:0",
      "type" : "activation",
      "name" : "FeatureExtractor\/MobilenetV3\/expanded_conv_4\/expand\/hard_swish\/Relu6:0",
      "beta" : 0
    },
    {
      "bottom" : "FeatureExtractor\/MobilenetV3\/expanded_conv_4\/expand\/BatchNorm\/FusedBatchNorm:0,FeatureExtractor\/MobilenetV3\/expanded_conv_4\/expand\/hard_swish\/Relu6:0",
      "alpha" : 1,
      "operation" : 1,
      "weights" : {

      },
      "fused_relu" : 0,
      "debug_info" : "FeatureExtractor\/MobilenetV3\/expanded_conv_4\/expand\/hard_swish\/mul:0",
      "top" : "FeatureExtractor\/MobilenetV3\/expanded_conv_4\/expand\/hard_swish\/mul:0",
      "type" : "elementwise",
      "name" : "FeatureExtractor\/MobilenetV3\/expanded_conv_4\/expand\/hard_swish\/mul:0",
      "beta" : 0
    },
    {
      "bottom" : "FeatureExtractor\/MobilenetV3\/expanded_conv_4\/expand\/hard_swish\/mul:0",
      "alpha" : 0.1666666716337204,
      "operation" : 1,
      "weights" : {

      },
      "fused_relu" : 0,
      "debug_info" : "FeatureExtractor\/MobilenetV3\/expanded_conv_4\/expand\/hard_swish\/mul_1:0",
      "top" : "FeatureExtractor\/MobilenetV3\/expanded_conv_4\/expand\/hard_swish\/mul_1:0",
      "type" : "elementwise",
      "name" : "FeatureExtractor\/MobilenetV3\/expanded_conv_4\/expand\/hard_swish\/mul_1:0",
      "beta" : 0
    },
    {
      "pad_r" : 0,
      "fused_relu" : 0,
      "fused_tanh" : 0,
      "debug_info" : "FeatureExtractor\/MobilenetV3\/expanded_conv_4\/depthwise\/depthwise:0",
      "pad_fill_mode" : 0,
      "pad_b" : 0,
      "pad_l" : 0,
      "top" : "FeatureExtractor\/MobilenetV3\/expanded_conv_4\/depthwise\/BatchNorm\/FusedBatchNorm:0",
      "K" : 240,
      "blob_biases" : 103,
      "name" : "FeatureExtractor\/MobilenetV3\/expanded_conv_4\/depthwise\/depthwise:0",
      "has_batch_norm" : 0,
      "type" : "convolution",
      "n_groups" : 240,
      "pad_t" : 0,
      "has_biases" : 1,
      "C" : 240,
      "bottom" : "FeatureExtractor\/MobilenetV3\/expanded_conv_4\/expand\/hard_swish\/mul_1:0",
      "weights" : {
        "W_U8" : 105,
        "lut_to_float32" : 107
      },
      "Nx" : 5,
      "pad_mode" : 1,
      "pad_value" : 0,
      "Ny" : 5,
      "n_parallel" : 1
    },
    {
      "bottom" : "FeatureExtractor\/MobilenetV3\/expanded_conv_4\/depthwise\/BatchNorm\/FusedBatchNorm:0",
      "alpha" : 3,
      "operation" : 0,
      "weights" : {

      },
      "fused_relu" : 0,
      "debug_info" : "FeatureExtractor\/MobilenetV3\/expanded_conv_4\/depthwise\/hard_swish\/add:0",
      "top" : "FeatureExtractor\/MobilenetV3\/expanded_conv_4\/depthwise\/hard_swish\/add:0",
      "type" : "elementwise",
      "name" : "FeatureExtractor\/MobilenetV3\/expanded_conv_4\/depthwise\/hard_swish\/add:0",
      "beta" : 0
    },
    {
      "bottom" : "FeatureExtractor\/MobilenetV3\/expanded_conv_4\/depthwise\/hard_swish\/add:0",
      "weights" : {

      },
      "mode" : 0,
      "debug_info" : "relu_FeatureExtractor\/MobilenetV3\/expanded_conv_4\/depthwise\/hard_swish\/Relu6:0",
      "top" : "relu_FeatureExtractor\/MobilenetV3\/expanded_conv_4\/depthwise\/hard_swish\/Relu6:0",
      "type" : "activation",
      "name" : "relu_FeatureExtractor\/MobilenetV3\/expanded_conv_4\/depthwise\/hard_swish\/Relu6:0"
    },
    {
      "alpha" : -1,
      "bottom" : "relu_FeatureExtractor\/MobilenetV3\/expanded_conv_4\/depthwise\/hard_swish\/Relu6:0",
      "weights" : {

      },
      "mode" : 6,
      "debug_info" : "relu_FeatureExtractor\/MobilenetV3\/expanded_conv_4\/depthwise\/hard_swish\/Relu6:0_neg",
      "top" : "relu_FeatureExtractor\/MobilenetV3\/expanded_conv_4\/depthwise\/hard_swish\/Relu6:0_neg",
      "type" : "activation",
      "name" : "relu_FeatureExtractor\/MobilenetV3\/expanded_conv_4\/depthwise\/hard_swish\/Relu6:0_neg",
      "beta" : 0
    },
    {
      "bottom" : "relu_FeatureExtractor\/MobilenetV3\/expanded_conv_4\/depthwise\/hard_swish\/Relu6:0_neg",
      "alpha" : -6,
      "operation" : 25,
      "weights" : {

      },
      "fused_relu" : 0,
      "debug_info" : "relu_FeatureExtractor\/MobilenetV3\/expanded_conv_4\/depthwise\/hard_swish\/Relu6:0_clip",
      "top" : "relu_FeatureExtractor\/MobilenetV3\/expanded_conv_4\/depthwise\/hard_swish\/Relu6:0_clip",
      "type" : "elementwise",
      "name" : "relu_FeatureExtractor\/MobilenetV3\/expanded_conv_4\/depthwise\/hard_swish\/Relu6:0_clip",
      "beta" : 0
    },
    {
      "alpha" : -1,
      "bottom" : "relu_FeatureExtractor\/MobilenetV3\/expanded_conv_4\/depthwise\/hard_swish\/Relu6:0_clip",
      "weights" : {

      },
      "mode" : 6,
      "debug_info" : "FeatureExtractor\/MobilenetV3\/expanded_conv_4\/depthwise\/hard_swish\/Relu6:0",
      "top" : "FeatureExtractor\/MobilenetV3\/expanded_conv_4\/depthwise\/hard_swish\/Relu6:0",
      "type" : "activation",
      "name" : "FeatureExtractor\/MobilenetV3\/expanded_conv_4\/depthwise\/hard_swish\/Relu6:0",
      "beta" : 0
    },
    {
      "bottom" : "FeatureExtractor\/MobilenetV3\/expanded_conv_4\/depthwise\/BatchNorm\/FusedBatchNorm:0,FeatureExtractor\/MobilenetV3\/expanded_conv_4\/depthwise\/hard_swish\/Relu6:0",
      "alpha" : 1,
      "operation" : 1,
      "weights" : {

      },
      "fused_relu" : 0,
      "debug_info" : "FeatureExtractor\/MobilenetV3\/expanded_conv_4\/depthwise\/hard_swish\/mul:0",
      "top" : "FeatureExtractor\/MobilenetV3\/expanded_conv_4\/depthwise\/hard_swish\/mul:0",
      "type" : "elementwise",
      "name" : "FeatureExtractor\/MobilenetV3\/expanded_conv_4\/depthwise\/hard_swish\/mul:0",
      "beta" : 0
    },
    {
      "bottom" : "FeatureExtractor\/MobilenetV3\/expanded_conv_4\/depthwise\/hard_swish\/mul:0",
      "alpha" : 0.1666666716337204,
      "operation" : 1,
      "weights" : {

      },
      "fused_relu" : 0,
      "debug_info" : "FeatureExtractor\/MobilenetV3\/expanded_conv_4\/depthwise\/hard_swish\/mul_1:0",
      "top" : "FeatureExtractor\/MobilenetV3\/expanded_conv_4\/depthwise\/hard_swish\/mul_1:0",
      "type" : "elementwise",
      "name" : "FeatureExtractor\/MobilenetV3\/expanded_conv_4\/depthwise\/hard_swish\/mul_1:0",
      "beta" : 0
    },
    {
      "pad_r" : 0,
      "debug_info" : "FeatureExtractor\/MobilenetV3\/expanded_conv_4\/squeeze_excite\/Mean:0",
      "pad_fill_mode" : 0,
      "pad_b" : 0,
      "pad_l" : 0,
      "size_x" : 19,
      "is_global" : 1,
      "top" : "FeatureExtractor\/MobilenetV3\/expanded_conv_4\/squeeze_excite\/Mean:0",
      "top_shape_style" : 0,
      "stride_x" : 1,
      "avg_or_max" : 0,
      "average_count_exclude_padding" : 0,
      "type" : "pool",
      "name" : "FeatureExtractor\/MobilenetV3\/expanded_conv_4\/squeeze_excite\/Mean:0",
      "pad_t" : 0,
      "stride_y" : 1,
      "bottom" : "FeatureExtractor\/MobilenetV3\/expanded_conv_4\/depthwise\/hard_swish\/mul_1:0",
      "weights" : {

      },
      "pad_mode" : 2,
      "size_y" : 19,
      "pad_value" : 0
    },
    {
      "pad_r" : 0,
      "fused_relu" : 1,
      "fused_tanh" : 0,
      "debug_info" : "FeatureExtractor\/MobilenetV3\/expanded_conv_4\/squeeze_excite\/Conv\/Conv2D:0",
      "pad_fill_mode" : 0,
      "pad_b" : 0,
      "pad_l" : 0,
      "top" : "FeatureExtractor\/MobilenetV3\/expanded_conv_4\/squeeze_excite\/Conv\/Relu:0",
      "K" : 240,
      "blob_biases" : 109,
      "name" : "FeatureExtractor\/MobilenetV3\/expanded_conv_4\/squeeze_excite\/Conv\/Conv2D:0",
      "has_batch_norm" : 0,
      "type" : "convolution",
      "n_groups" : 1,
      "pad_t" : 0,
      "has_biases" : 1,
      "C" : 64,
      "bottom" : "FeatureExtractor\/MobilenetV3\/expanded_conv_4\/squeeze_excite\/Mean:0",
      "weights" : {
        "W_U8" : 111,
        "lut_to_float32" : 113
      },
      "Nx" : 1,
      "pad_mode" : 1,
      "pad_value" : 0,
      "Ny" : 1,
      "n_parallel" : 1
    },
    {
      "pad_r" : 0,
      "fused_relu" : 0,
      "fused_tanh" : 0,
      "debug_info" : "FeatureExtractor\/MobilenetV3\/expanded_conv_4\/squeeze_excite\/Conv_1\/Conv2D:0",
      "pad_fill_mode" : 0,
      "pad_b" : 0,
      "pad_l" : 0,
      "top" : "FeatureExtractor\/MobilenetV3\/expanded_conv_4\/squeeze_excite\/Conv_1\/BiasAdd:0",
      "K" : 64,
      "blob_biases" : 115,
      "name" : "FeatureExtractor\/MobilenetV3\/expanded_conv_4\/squeeze_excite\/Conv_1\/Conv2D:0",
      "has_batch_norm" : 0,
      "type" : "convolution",
      "n_groups" : 1,
      "pad_t" : 0,
      "has_biases" : 1,
      "C" : 240,
      "bottom" : "FeatureExtractor\/MobilenetV3\/expanded_conv_4\/squeeze_excite\/Conv\/Relu:0",
      "weights" : {
        "W_U8" : 117,
        "lut_to_float32" : 119
      },
      "Nx" : 1,
      "pad_mode" : 1,
      "pad_value" : 0,
      "Ny" : 1,
      "n_parallel" : 1
    },
    {
      "bottom" : "FeatureExtractor\/MobilenetV3\/expanded_conv_4\/squeeze_excite\/Conv_1\/BiasAdd:0",
      "alpha" : 3,
      "operation" : 0,
      "weights" : {

      },
      "fused_relu" : 0,
      "debug_info" : "FeatureExtractor\/MobilenetV3\/expanded_conv_4\/squeeze_excite\/Conv_1\/add:0",
      "top" : "FeatureExtractor\/MobilenetV3\/expanded_conv_4\/squeeze_excite\/Conv_1\/add:0",
      "type" : "elementwise",
      "name" : "FeatureExtractor\/MobilenetV3\/expanded_conv_4\/squeeze_excite\/Conv_1\/add:0",
      "beta" : 0
    },
    {
      "bottom" : "FeatureExtractor\/MobilenetV3\/expanded_conv_4\/squeeze_excite\/Conv_1\/add:0",
      "weights" : {

      },
      "mode" : 0,
      "debug_info" : "relu_FeatureExtractor\/MobilenetV3\/expanded_conv_4\/squeeze_excite\/Conv_1\/Relu6:0",
      "top" : "relu_FeatureExtractor\/MobilenetV3\/expanded_conv_4\/squeeze_excite\/Conv_1\/Relu6:0",
      "type" : "activation",
      "name" : "relu_FeatureExtractor\/MobilenetV3\/expanded_conv_4\/squeeze_excite\/Conv_1\/Relu6:0"
    },
    {
      "alpha" : -1,
      "bottom" : "relu_FeatureExtractor\/MobilenetV3\/expanded_conv_4\/squeeze_excite\/Conv_1\/Relu6:0",
      "weights" : {

      },
      "mode" : 6,
      "debug_info" : "relu_FeatureExtractor\/MobilenetV3\/expanded_conv_4\/squeeze_excite\/Conv_1\/Relu6:0_neg",
      "top" : "relu_FeatureExtractor\/MobilenetV3\/expanded_conv_4\/squeeze_excite\/Conv_1\/Relu6:0_neg",
      "type" : "activation",
      "name" : "relu_FeatureExtractor\/MobilenetV3\/expanded_conv_4\/squeeze_excite\/Conv_1\/Relu6:0_neg",
      "beta" : 0
    },
    {
      "bottom" : "relu_FeatureExtractor\/MobilenetV3\/expanded_conv_4\/squeeze_excite\/Conv_1\/Relu6:0_neg",
      "alpha" : -6,
      "operation" : 25,
      "weights" : {

      },
      "fused_relu" : 0,
      "debug_info" : "relu_FeatureExtractor\/MobilenetV3\/expanded_conv_4\/squeeze_excite\/Conv_1\/Relu6:0_clip",
      "top" : "relu_FeatureExtractor\/MobilenetV3\/expanded_conv_4\/squeeze_excite\/Conv_1\/Relu6:0_clip",
      "type" : "elementwise",
      "name" : "relu_FeatureExtractor\/MobilenetV3\/expanded_conv_4\/squeeze_excite\/Conv_1\/Relu6:0_clip",
      "beta" : 0
    },
    {
      "alpha" : -1,
      "bottom" : "relu_FeatureExtractor\/MobilenetV3\/expanded_conv_4\/squeeze_excite\/Conv_1\/Relu6:0_clip",
      "weights" : {

      },
      "mode" : 6,
      "debug_info" : "FeatureExtractor\/MobilenetV3\/expanded_conv_4\/squeeze_excite\/Conv_1\/Relu6:0",
      "top" : "FeatureExtractor\/MobilenetV3\/expanded_conv_4\/squeeze_excite\/Conv_1\/Relu6:0",
      "type" : "activation",
      "name" : "FeatureExtractor\/MobilenetV3\/expanded_conv_4\/squeeze_excite\/Conv_1\/Relu6:0",
      "beta" : 0
    },
    {
      "bottom" : "FeatureExtractor\/MobilenetV3\/expanded_conv_4\/squeeze_excite\/Conv_1\/Relu6:0",
      "alpha" : 0.16666999459266663,
      "operation" : 1,
      "weights" : {

      },
      "fused_relu" : 0,
      "debug_info" : "FeatureExtractor\/MobilenetV3\/expanded_conv_4\/squeeze_excite\/Conv_1\/mul:0",
      "top" : "FeatureExtractor\/MobilenetV3\/expanded_conv_4\/squeeze_excite\/Conv_1\/mul:0",
      "type" : "elementwise",
      "name" : "FeatureExtractor\/MobilenetV3\/expanded_conv_4\/squeeze_excite\/Conv_1\/mul:0",
      "beta" : 0
    },
    {
      "bottom" : "FeatureExtractor\/MobilenetV3\/expanded_conv_4\/depthwise\/hard_swish\/mul_1:0,FeatureExtractor\/MobilenetV3\/expanded_conv_4\/squeeze_excite\/Conv_1\/mul:0",
      "alpha" : 1,
      "operation" : 1,
      "weights" : {

      },
      "fused_relu" : 0,
      "debug_info" : "FeatureExtractor\/MobilenetV3\/expanded_conv_4\/squeeze_excite\/mul:0",
      "top" : "FeatureExtractor\/MobilenetV3\/expanded_conv_4\/squeeze_excite\/mul:0",
      "type" : "elementwise",
      "name" : "FeatureExtractor\/MobilenetV3\/expanded_conv_4\/squeeze_excite\/mul:0",
      "beta" : 0
    },
    {
      "pad_r" : 0,
      "fused_relu" : 0,
      "fused_tanh" : 0,
      "debug_info" : "FeatureExtractor\/MobilenetV3\/expanded_conv_4\/project\/Conv2D:0",
      "pad_fill_mode" : 0,
      "pad_b" : 0,
      "pad_l" : 0,
      "top" : "FeatureExtractor\/MobilenetV3\/expanded_conv_4\/project\/BatchNorm\/FusedBatchNorm:0",
      "K" : 240,
      "blob_biases" : 121,
      "name" : "FeatureExtractor\/MobilenetV3\/expanded_conv_4\/project\/Conv2D:0",
      "has_batch_norm" : 0,
      "type" : "convolution",
      "n_groups" : 1,
      "pad_t" : 0,
      "has_biases" : 1,
      "C" : 40,
      "bottom" : "FeatureExtractor\/MobilenetV3\/expanded_conv_4\/squeeze_excite\/mul:0",
      "weights" : {
        "W_U8" : 123,
        "lut_to_float32" : 125
      },
      "Nx" : 1,
      "pad_mode" : 1,
      "pad_value" : 0,
      "Ny" : 1,
      "n_parallel" : 1
    },
    {
      "bottom" : "FeatureExtractor\/MobilenetV3\/expanded_conv_4\/project\/BatchNorm\/FusedBatchNorm:0,FeatureExtractor\/MobilenetV3\/expanded_conv_3\/project\/BatchNorm\/FusedBatchNorm:0",
      "alpha" : 1,
      "operation" : 0,
      "weights" : {

      },
      "fused_relu" : 0,
      "debug_info" : "FeatureExtractor\/MobilenetV3\/expanded_conv_4\/add:0",
      "top" : "FeatureExtractor\/MobilenetV3\/expanded_conv_4\/add:0",
      "type" : "elementwise",
      "name" : "FeatureExtractor\/MobilenetV3\/expanded_conv_4\/add:0",
      "beta" : 0
    },
    {
      "pad_r" : 0,
      "fused_relu" : 0,
      "fused_tanh" : 0,
      "debug_info" : "FeatureExtractor\/MobilenetV3\/expanded_conv_5\/expand\/Conv2D:0",
      "pad_fill_mode" : 0,
      "pad_b" : 0,
      "pad_l" : 0,
      "top" : "FeatureExtractor\/MobilenetV3\/expanded_conv_5\/expand\/BatchNorm\/FusedBatchNorm:0",
      "K" : 40,
      "blob_biases" : 127,
      "name" : "FeatureExtractor\/MobilenetV3\/expanded_conv_5\/expand\/Conv2D:0",
      "has_batch_norm" : 0,
      "type" : "convolution",
      "n_groups" : 1,
      "pad_t" : 0,
      "has_biases" : 1,
      "C" : 240,
      "bottom" : "FeatureExtractor\/MobilenetV3\/expanded_conv_4\/add:0",
      "weights" : {
        "W_U8" : 129,
        "lut_to_float32" : 131
      },
      "Nx" : 1,
      "pad_mode" : 1,
      "pad_value" : 0,
      "Ny" : 1,
      "n_parallel" : 1
    },
    {
      "bottom" : "FeatureExtractor\/MobilenetV3\/expanded_conv_5\/expand\/BatchNorm\/FusedBatchNorm:0",
      "alpha" : 3,
      "operation" : 0,
      "weights" : {

      },
      "fused_relu" : 0,
      "debug_info" : "FeatureExtractor\/MobilenetV3\/expanded_conv_5\/expand\/hard_swish\/add:0",
      "top" : "FeatureExtractor\/MobilenetV3\/expanded_conv_5\/expand\/hard_swish\/add:0",
      "type" : "elementwise",
      "name" : "FeatureExtractor\/MobilenetV3\/expanded_conv_5\/expand\/hard_swish\/add:0",
      "beta" : 0
    },
    {
      "bottom" : "FeatureExtractor\/MobilenetV3\/expanded_conv_5\/expand\/hard_swish\/add:0",
      "weights" : {

      },
      "mode" : 0,
      "debug_info" : "relu_FeatureExtractor\/MobilenetV3\/expanded_conv_5\/expand\/hard_swish\/Relu6:0",
      "top" : "relu_FeatureExtractor\/MobilenetV3\/expanded_conv_5\/expand\/hard_swish\/Relu6:0",
      "type" : "activation",
      "name" : "relu_FeatureExtractor\/MobilenetV3\/expanded_conv_5\/expand\/hard_swish\/Relu6:0"
    },
    {
      "alpha" : -1,
      "bottom" : "relu_FeatureExtractor\/MobilenetV3\/expanded_conv_5\/expand\/hard_swish\/Relu6:0",
      "weights" : {

      },
      "mode" : 6,
      "debug_info" : "relu_FeatureExtractor\/MobilenetV3\/expanded_conv_5\/expand\/hard_swish\/Relu6:0_neg",
      "top" : "relu_FeatureExtractor\/MobilenetV3\/expanded_conv_5\/expand\/hard_swish\/Relu6:0_neg",
      "type" : "activation",
      "name" : "relu_FeatureExtractor\/MobilenetV3\/expanded_conv_5\/expand\/hard_swish\/Relu6:0_neg",
      "beta" : 0
    },
    {
      "bottom" : "relu_FeatureExtractor\/MobilenetV3\/expanded_conv_5\/expand\/hard_swish\/Relu6:0_neg",
      "alpha" : -6,
      "operation" : 25,
      "weights" : {

      },
      "fused_relu" : 0,
      "debug_info" : "relu_FeatureExtractor\/MobilenetV3\/expanded_conv_5\/expand\/hard_swish\/Relu6:0_clip",
      "top" : "relu_FeatureExtractor\/MobilenetV3\/expanded_conv_5\/expand\/hard_swish\/Relu6:0_clip",
      "type" : "elementwise",
      "name" : "relu_FeatureExtractor\/MobilenetV3\/expanded_conv_5\/expand\/hard_swish\/Relu6:0_clip",
      "beta" : 0
    },
    {
      "alpha" : -1,
      "bottom" : "relu_FeatureExtractor\/MobilenetV3\/expanded_conv_5\/expand\/hard_swish\/Relu6:0_clip",
      "weights" : {

      },
      "mode" : 6,
      "debug_info" : "FeatureExtractor\/MobilenetV3\/expanded_conv_5\/expand\/hard_swish\/Relu6:0",
      "top" : "FeatureExtractor\/MobilenetV3\/expanded_conv_5\/expand\/hard_swish\/Relu6:0",
      "type" : "activation",
      "name" : "FeatureExtractor\/MobilenetV3\/expanded_conv_5\/expand\/hard_swish\/Relu6:0",
      "beta" : 0
    },
    {
      "bottom" : "FeatureExtractor\/MobilenetV3\/expanded_conv_5\/expand\/BatchNorm\/FusedBatchNorm:0,FeatureExtractor\/MobilenetV3\/expanded_conv_5\/expand\/hard_swish\/Relu6:0",
      "alpha" : 1,
      "operation" : 1,
      "weights" : {

      },
      "fused_relu" : 0,
      "debug_info" : "FeatureExtractor\/MobilenetV3\/expanded_conv_5\/expand\/hard_swish\/mul:0",
      "top" : "FeatureExtractor\/MobilenetV3\/expanded_conv_5\/expand\/hard_swish\/mul:0",
      "type" : "elementwise",
      "name" : "FeatureExtractor\/MobilenetV3\/expanded_conv_5\/expand\/hard_swish\/mul:0",
      "beta" : 0
    },
    {
      "bottom" : "FeatureExtractor\/MobilenetV3\/expanded_conv_5\/expand\/hard_swish\/mul:0",
      "alpha" : 0.1666666716337204,
      "operation" : 1,
      "weights" : {

      },
      "fused_relu" : 0,
      "debug_info" : "FeatureExtractor\/MobilenetV3\/expanded_conv_5\/expand\/hard_swish\/mul_1:0",
      "top" : "FeatureExtractor\/MobilenetV3\/expanded_conv_5\/expand\/hard_swish\/mul_1:0",
      "type" : "elementwise",
      "name" : "FeatureExtractor\/MobilenetV3\/expanded_conv_5\/expand\/hard_swish\/mul_1:0",
      "beta" : 0
    },
    {
      "pad_r" : 0,
      "fused_relu" : 0,
      "fused_tanh" : 0,
      "debug_info" : "FeatureExtractor\/MobilenetV3\/expanded_conv_5\/depthwise\/depthwise:0",
      "pad_fill_mode" : 0,
      "pad_b" : 0,
      "pad_l" : 0,
      "top" : "FeatureExtractor\/MobilenetV3\/expanded_conv_5\/depthwise\/BatchNorm\/FusedBatchNorm:0",
      "K" : 240,
      "blob_biases" : 133,
      "name" : "FeatureExtractor\/MobilenetV3\/expanded_conv_5\/depthwise\/depthwise:0",
      "has_batch_norm" : 0,
      "type" : "convolution",
      "n_groups" : 240,
      "pad_t" : 0,
      "has_biases" : 1,
      "C" : 240,
      "bottom" : "FeatureExtractor\/MobilenetV3\/expanded_conv_5\/expand\/hard_swish\/mul_1:0",
      "weights" : {
        "W_U8" : 135,
        "lut_to_float32" : 137
      },
      "Nx" : 5,
      "pad_mode" : 1,
      "pad_value" : 0,
      "Ny" : 5,
      "n_parallel" : 1
    },
    {
      "bottom" : "FeatureExtractor\/MobilenetV3\/expanded_conv_5\/depthwise\/BatchNorm\/FusedBatchNorm:0",
      "alpha" : 3,
      "operation" : 0,
      "weights" : {

      },
      "fused_relu" : 0,
      "debug_info" : "FeatureExtractor\/MobilenetV3\/expanded_conv_5\/depthwise\/hard_swish\/add:0",
      "top" : "FeatureExtractor\/MobilenetV3\/expanded_conv_5\/depthwise\/hard_swish\/add:0",
      "type" : "elementwise",
      "name" : "FeatureExtractor\/MobilenetV3\/expanded_conv_5\/depthwise\/hard_swish\/add:0",
      "beta" : 0
    },
    {
      "bottom" : "FeatureExtractor\/MobilenetV3\/expanded_conv_5\/depthwise\/hard_swish\/add:0",
      "weights" : {

      },
      "mode" : 0,
      "debug_info" : "relu_FeatureExtractor\/MobilenetV3\/expanded_conv_5\/depthwise\/hard_swish\/Relu6:0",
      "top" : "relu_FeatureExtractor\/MobilenetV3\/expanded_conv_5\/depthwise\/hard_swish\/Relu6:0",
      "type" : "activation",
      "name" : "relu_FeatureExtractor\/MobilenetV3\/expanded_conv_5\/depthwise\/hard_swish\/Relu6:0"
    },
    {
      "alpha" : -1,
      "bottom" : "relu_FeatureExtractor\/MobilenetV3\/expanded_conv_5\/depthwise\/hard_swish\/Relu6:0",
      "weights" : {

      },
      "mode" : 6,
      "debug_info" : "relu_FeatureExtractor\/MobilenetV3\/expanded_conv_5\/depthwise\/hard_swish\/Relu6:0_neg",
      "top" : "relu_FeatureExtractor\/MobilenetV3\/expanded_conv_5\/depthwise\/hard_swish\/Relu6:0_neg",
      "type" : "activation",
      "name" : "relu_FeatureExtractor\/MobilenetV3\/expanded_conv_5\/depthwise\/hard_swish\/Relu6:0_neg",
      "beta" : 0
    },
    {
      "bottom" : "relu_FeatureExtractor\/MobilenetV3\/expanded_conv_5\/depthwise\/hard_swish\/Relu6:0_neg",
      "alpha" : -6,
      "operation" : 25,
      "weights" : {

      },
      "fused_relu" : 0,
      "debug_info" : "relu_FeatureExtractor\/MobilenetV3\/expanded_conv_5\/depthwise\/hard_swish\/Relu6:0_clip",
      "top" : "relu_FeatureExtractor\/MobilenetV3\/expanded_conv_5\/depthwise\/hard_swish\/Relu6:0_clip",
      "type" : "elementwise",
      "name" : "relu_FeatureExtractor\/MobilenetV3\/expanded_conv_5\/depthwise\/hard_swish\/Relu6:0_clip",
      "beta" : 0
    },
    {
      "alpha" : -1,
      "bottom" : "relu_FeatureExtractor\/MobilenetV3\/expanded_conv_5\/depthwise\/hard_swish\/Relu6:0_clip",
      "weights" : {

      },
      "mode" : 6,
      "debug_info" : "FeatureExtractor\/MobilenetV3\/expanded_conv_5\/depthwise\/hard_swish\/Relu6:0",
      "top" : "FeatureExtractor\/MobilenetV3\/expanded_conv_5\/depthwise\/hard_swish\/Relu6:0",
      "type" : "activation",
      "name" : "FeatureExtractor\/MobilenetV3\/expanded_conv_5\/depthwise\/hard_swish\/Relu6:0",
      "beta" : 0
    },
    {
      "bottom" : "FeatureExtractor\/MobilenetV3\/expanded_conv_5\/depthwise\/BatchNorm\/FusedBatchNorm:0,FeatureExtractor\/MobilenetV3\/expanded_conv_5\/depthwise\/hard_swish\/Relu6:0",
      "alpha" : 1,
      "operation" : 1,
      "weights" : {

      },
      "fused_relu" : 0,
      "debug_info" : "FeatureExtractor\/MobilenetV3\/expanded_conv_5\/depthwise\/hard_swish\/mul:0",
      "top" : "FeatureExtractor\/MobilenetV3\/expanded_conv_5\/depthwise\/hard_swish\/mul:0",
      "type" : "elementwise",
      "name" : "FeatureExtractor\/MobilenetV3\/expanded_conv_5\/depthwise\/hard_swish\/mul:0",
      "beta" : 0
    },
    {
      "bottom" : "FeatureExtractor\/MobilenetV3\/expanded_conv_5\/depthwise\/hard_swish\/mul:0",
      "alpha" : 0.1666666716337204,
      "operation" : 1,
      "weights" : {

      },
      "fused_relu" : 0,
      "debug_info" : "FeatureExtractor\/MobilenetV3\/expanded_conv_5\/depthwise\/hard_swish\/mul_1:0",
      "top" : "FeatureExtractor\/MobilenetV3\/expanded_conv_5\/depthwise\/hard_swish\/mul_1:0",
      "type" : "elementwise",
      "name" : "FeatureExtractor\/MobilenetV3\/expanded_conv_5\/depthwise\/hard_swish\/mul_1:0",
      "beta" : 0
    },
    {
      "pad_r" : 0,
      "debug_info" : "FeatureExtractor\/MobilenetV3\/expanded_conv_5\/squeeze_excite\/Mean:0",
      "pad_fill_mode" : 0,
      "pad_b" : 0,
      "pad_l" : 0,
      "size_x" : 19,
      "is_global" : 1,
      "top" : "FeatureExtractor\/MobilenetV3\/expanded_conv_5\/squeeze_excite\/Mean:0",
      "top_shape_style" : 0,
      "stride_x" : 1,
      "avg_or_max" : 0,
      "average_count_exclude_padding" : 0,
      "type" : "pool",
      "name" : "FeatureExtractor\/MobilenetV3\/expanded_conv_5\/squeeze_excite\/Mean:0",
      "pad_t" : 0,
      "stride_y" : 1,
      "bottom" : "FeatureExtractor\/MobilenetV3\/expanded_conv_5\/depthwise\/hard_swish\/mul_1:0",
      "weights" : {

      },
      "pad_mode" : 2,
      "size_y" : 19,
      "pad_value" : 0
    },
    {
      "pad_r" : 0,
      "fused_relu" : 1,
      "fused_tanh" : 0,
      "debug_info" : "FeatureExtractor\/MobilenetV3\/expanded_conv_5\/squeeze_excite\/Conv\/Conv2D:0",
      "pad_fill_mode" : 0,
      "pad_b" : 0,
      "pad_l" : 0,
      "top" : "FeatureExtractor\/MobilenetV3\/expanded_conv_5\/squeeze_excite\/Conv\/Relu:0",
      "K" : 240,
      "blob_biases" : 139,
      "name" : "FeatureExtractor\/MobilenetV3\/expanded_conv_5\/squeeze_excite\/Conv\/Conv2D:0",
      "has_batch_norm" : 0,
      "type" : "convolution",
      "n_groups" : 1,
      "pad_t" : 0,
      "has_biases" : 1,
      "C" : 64,
      "bottom" : "FeatureExtractor\/MobilenetV3\/expanded_conv_5\/squeeze_excite\/Mean:0",
      "weights" : {
        "W_U8" : 141,
        "lut_to_float32" : 143
      },
      "Nx" : 1,
      "pad_mode" : 1,
      "pad_value" : 0,
      "Ny" : 1,
      "n_parallel" : 1
    },
    {
      "pad_r" : 0,
      "fused_relu" : 0,
      "fused_tanh" : 0,
      "debug_info" : "FeatureExtractor\/MobilenetV3\/expanded_conv_5\/squeeze_excite\/Conv_1\/Conv2D:0",
      "pad_fill_mode" : 0,
      "pad_b" : 0,
      "pad_l" : 0,
      "top" : "FeatureExtractor\/MobilenetV3\/expanded_conv_5\/squeeze_excite\/Conv_1\/BiasAdd:0",
      "K" : 64,
      "blob_biases" : 145,
      "name" : "FeatureExtractor\/MobilenetV3\/expanded_conv_5\/squeeze_excite\/Conv_1\/Conv2D:0",
      "has_batch_norm" : 0,
      "type" : "convolution",
      "n_groups" : 1,
      "pad_t" : 0,
      "has_biases" : 1,
      "C" : 240,
      "bottom" : "FeatureExtractor\/MobilenetV3\/expanded_conv_5\/squeeze_excite\/Conv\/Relu:0",
      "weights" : {
        "W_U8" : 147,
        "lut_to_float32" : 149
      },
      "Nx" : 1,
      "pad_mode" : 1,
      "pad_value" : 0,
      "Ny" : 1,
      "n_parallel" : 1
    },
    {
      "bottom" : "FeatureExtractor\/MobilenetV3\/expanded_conv_5\/squeeze_excite\/Conv_1\/BiasAdd:0",
      "alpha" : 3,
      "operation" : 0,
      "weights" : {

      },
      "fused_relu" : 0,
      "debug_info" : "FeatureExtractor\/MobilenetV3\/expanded_conv_5\/squeeze_excite\/Conv_1\/add:0",
      "top" : "FeatureExtractor\/MobilenetV3\/expanded_conv_5\/squeeze_excite\/Conv_1\/add:0",
      "type" : "elementwise",
      "name" : "FeatureExtractor\/MobilenetV3\/expanded_conv_5\/squeeze_excite\/Conv_1\/add:0",
      "beta" : 0
    },
    {
      "bottom" : "FeatureExtractor\/MobilenetV3\/expanded_conv_5\/squeeze_excite\/Conv_1\/add:0",
      "weights" : {

      },
      "mode" : 0,
      "debug_info" : "relu_FeatureExtractor\/MobilenetV3\/expanded_conv_5\/squeeze_excite\/Conv_1\/Relu6:0",
      "top" : "relu_FeatureExtractor\/MobilenetV3\/expanded_conv_5\/squeeze_excite\/Conv_1\/Relu6:0",
      "type" : "activation",
      "name" : "relu_FeatureExtractor\/MobilenetV3\/expanded_conv_5\/squeeze_excite\/Conv_1\/Relu6:0"
    },
    {
      "alpha" : -1,
      "bottom" : "relu_FeatureExtractor\/MobilenetV3\/expanded_conv_5\/squeeze_excite\/Conv_1\/Relu6:0",
      "weights" : {

      },
      "mode" : 6,
      "debug_info" : "relu_FeatureExtractor\/MobilenetV3\/expanded_conv_5\/squeeze_excite\/Conv_1\/Relu6:0_neg",
      "top" : "relu_FeatureExtractor\/MobilenetV3\/expanded_conv_5\/squeeze_excite\/Conv_1\/Relu6:0_neg",
      "type" : "activation",
      "name" : "relu_FeatureExtractor\/MobilenetV3\/expanded_conv_5\/squeeze_excite\/Conv_1\/Relu6:0_neg",
      "beta" : 0
    },
    {
      "bottom" : "relu_FeatureExtractor\/MobilenetV3\/expanded_conv_5\/squeeze_excite\/Conv_1\/Relu6:0_neg",
      "alpha" : -6,
      "operation" : 25,
      "weights" : {

      },
      "fused_relu" : 0,
      "debug_info" : "relu_FeatureExtractor\/MobilenetV3\/expanded_conv_5\/squeeze_excite\/Conv_1\/Relu6:0_clip",
      "top" : "relu_FeatureExtractor\/MobilenetV3\/expanded_conv_5\/squeeze_excite\/Conv_1\/Relu6:0_clip",
      "type" : "elementwise",
      "name" : "relu_FeatureExtractor\/MobilenetV3\/expanded_conv_5\/squeeze_excite\/Conv_1\/Relu6:0_clip",
      "beta" : 0
    },
    {
      "alpha" : -1,
      "bottom" : "relu_FeatureExtractor\/MobilenetV3\/expanded_conv_5\/squeeze_excite\/Conv_1\/Relu6:0_clip",
      "weights" : {

      },
      "mode" : 6,
      "debug_info" : "FeatureExtractor\/MobilenetV3\/expanded_conv_5\/squeeze_excite\/Conv_1\/Relu6:0",
      "top" : "FeatureExtractor\/MobilenetV3\/expanded_conv_5\/squeeze_excite\/Conv_1\/Relu6:0",
      "type" : "activation",
      "name" : "FeatureExtractor\/MobilenetV3\/expanded_conv_5\/squeeze_excite\/Conv_1\/Relu6:0",
      "beta" : 0
    },
    {
      "bottom" : "FeatureExtractor\/MobilenetV3\/expanded_conv_5\/squeeze_excite\/Conv_1\/Relu6:0",
      "alpha" : 0.16666999459266663,
      "operation" : 1,
      "weights" : {

      },
      "fused_relu" : 0,
      "debug_info" : "FeatureExtractor\/MobilenetV3\/expanded_conv_5\/squeeze_excite\/Conv_1\/mul:0",
      "top" : "FeatureExtractor\/MobilenetV3\/expanded_conv_5\/squeeze_excite\/Conv_1\/mul:0",
      "type" : "elementwise",
      "name" : "FeatureExtractor\/MobilenetV3\/expanded_conv_5\/squeeze_excite\/Conv_1\/mul:0",
      "beta" : 0
    },
    {
      "bottom" : "FeatureExtractor\/MobilenetV3\/expanded_conv_5\/depthwise\/hard_swish\/mul_1:0,FeatureExtractor\/MobilenetV3\/expanded_conv_5\/squeeze_excite\/Conv_1\/mul:0",
      "alpha" : 1,
      "operation" : 1,
      "weights" : {

      },
      "fused_relu" : 0,
      "debug_info" : "FeatureExtractor\/MobilenetV3\/expanded_conv_5\/squeeze_excite\/mul:0",
      "top" : "FeatureExtractor\/MobilenetV3\/expanded_conv_5\/squeeze_excite\/mul:0",
      "type" : "elementwise",
      "name" : "FeatureExtractor\/MobilenetV3\/expanded_conv_5\/squeeze_excite\/mul:0",
      "beta" : 0
    },
    {
      "pad_r" : 0,
      "fused_relu" : 0,
      "fused_tanh" : 0,
      "debug_info" : "FeatureExtractor\/MobilenetV3\/expanded_conv_5\/project\/Conv2D:0",
      "pad_fill_mode" : 0,
      "pad_b" : 0,
      "pad_l" : 0,
      "top" : "FeatureExtractor\/MobilenetV3\/expanded_conv_5\/project\/BatchNorm\/FusedBatchNorm:0",
      "K" : 240,
      "blob_biases" : 151,
      "name" : "FeatureExtractor\/MobilenetV3\/expanded_conv_5\/project\/Conv2D:0",
      "has_batch_norm" : 0,
      "type" : "convolution",
      "n_groups" : 1,
      "pad_t" : 0,
      "has_biases" : 1,
      "C" : 40,
      "bottom" : "FeatureExtractor\/MobilenetV3\/expanded_conv_5\/squeeze_excite\/mul:0",
      "weights" : {
        "W_U8" : 153,
        "lut_to_float32" : 155
      },
      "Nx" : 1,
      "pad_mode" : 1,
      "pad_value" : 0,
      "Ny" : 1,
      "n_parallel" : 1
    },
    {
      "bottom" : "FeatureExtractor\/MobilenetV3\/expanded_conv_5\/project\/BatchNorm\/FusedBatchNorm:0,FeatureExtractor\/MobilenetV3\/expanded_conv_4\/add:0",
      "alpha" : 1,
      "operation" : 0,
      "weights" : {

      },
      "fused_relu" : 0,
      "debug_info" : "FeatureExtractor\/MobilenetV3\/expanded_conv_5\/add:0",
      "top" : "FeatureExtractor\/MobilenetV3\/expanded_conv_5\/add:0",
      "type" : "elementwise",
      "name" : "FeatureExtractor\/MobilenetV3\/expanded_conv_5\/add:0",
      "beta" : 0
    },
    {
      "pad_r" : 0,
      "fused_relu" : 0,
      "fused_tanh" : 0,
      "debug_info" : "FeatureExtractor\/MobilenetV3\/expanded_conv_6\/expand\/Conv2D:0",
      "pad_fill_mode" : 0,
      "pad_b" : 0,
      "pad_l" : 0,
      "top" : "FeatureExtractor\/MobilenetV3\/expanded_conv_6\/expand\/BatchNorm\/FusedBatchNorm:0",
      "K" : 40,
      "blob_biases" : 157,
      "name" : "FeatureExtractor\/MobilenetV3\/expanded_conv_6\/expand\/Conv2D:0",
      "has_batch_norm" : 0,
      "type" : "convolution",
      "n_groups" : 1,
      "pad_t" : 0,
      "has_biases" : 1,
      "C" : 120,
      "bottom" : "FeatureExtractor\/MobilenetV3\/expanded_conv_5\/add:0",
      "weights" : {
        "W_U8" : 159,
        "lut_to_float32" : 161
      },
      "Nx" : 1,
      "pad_mode" : 1,
      "pad_value" : 0,
      "Ny" : 1,
      "n_parallel" : 1
    },
    {
      "bottom" : "FeatureExtractor\/MobilenetV3\/expanded_conv_6\/expand\/BatchNorm\/FusedBatchNorm:0",
      "alpha" : 3,
      "operation" : 0,
      "weights" : {

      },
      "fused_relu" : 0,
      "debug_info" : "FeatureExtractor\/MobilenetV3\/expanded_conv_6\/expand\/hard_swish\/add:0",
      "top" : "FeatureExtractor\/MobilenetV3\/expanded_conv_6\/expand\/hard_swish\/add:0",
      "type" : "elementwise",
      "name" : "FeatureExtractor\/MobilenetV3\/expanded_conv_6\/expand\/hard_swish\/add:0",
      "beta" : 0
    },
    {
      "bottom" : "FeatureExtractor\/MobilenetV3\/expanded_conv_6\/expand\/hard_swish\/add:0",
      "weights" : {

      },
      "mode" : 0,
      "debug_info" : "relu_FeatureExtractor\/MobilenetV3\/expanded_conv_6\/expand\/hard_swish\/Relu6:0",
      "top" : "relu_FeatureExtractor\/MobilenetV3\/expanded_conv_6\/expand\/hard_swish\/Relu6:0",
      "type" : "activation",
      "name" : "relu_FeatureExtractor\/MobilenetV3\/expanded_conv_6\/expand\/hard_swish\/Relu6:0"
    },
    {
      "alpha" : -1,
      "bottom" : "relu_FeatureExtractor\/MobilenetV3\/expanded_conv_6\/expand\/hard_swish\/Relu6:0",
      "weights" : {

      },
      "mode" : 6,
      "debug_info" : "relu_FeatureExtractor\/MobilenetV3\/expanded_conv_6\/expand\/hard_swish\/Relu6:0_neg",
      "top" : "relu_FeatureExtractor\/MobilenetV3\/expanded_conv_6\/expand\/hard_swish\/Relu6:0_neg",
      "type" : "activation",
      "name" : "relu_FeatureExtractor\/MobilenetV3\/expanded_conv_6\/expand\/hard_swish\/Relu6:0_neg",
      "beta" : 0
    },
    {
      "bottom" : "relu_FeatureExtractor\/MobilenetV3\/expanded_conv_6\/expand\/hard_swish\/Relu6:0_neg",
      "alpha" : -6,
      "operation" : 25,
      "weights" : {

      },
      "fused_relu" : 0,
      "debug_info" : "relu_FeatureExtractor\/MobilenetV3\/expanded_conv_6\/expand\/hard_swish\/Relu6:0_clip",
      "top" : "relu_FeatureExtractor\/MobilenetV3\/expanded_conv_6\/expand\/hard_swish\/Relu6:0_clip",
      "type" : "elementwise",
      "name" : "relu_FeatureExtractor\/MobilenetV3\/expanded_conv_6\/expand\/hard_swish\/Relu6:0_clip",
      "beta" : 0
    },
    {
      "alpha" : -1,
      "bottom" : "relu_FeatureExtractor\/MobilenetV3\/expanded_conv_6\/expand\/hard_swish\/Relu6:0_clip",
      "weights" : {

      },
      "mode" : 6,
      "debug_info" : "FeatureExtractor\/MobilenetV3\/expanded_conv_6\/expand\/hard_swish\/Relu6:0",
      "top" : "FeatureExtractor\/MobilenetV3\/expanded_conv_6\/expand\/hard_swish\/Relu6:0",
      "type" : "activation",
      "name" : "FeatureExtractor\/MobilenetV3\/expanded_conv_6\/expand\/hard_swish\/Relu6:0",
      "beta" : 0
    },
    {
      "bottom" : "FeatureExtractor\/MobilenetV3\/expanded_conv_6\/expand\/BatchNorm\/FusedBatchNorm:0,FeatureExtractor\/MobilenetV3\/expanded_conv_6\/expand\/hard_swish\/Relu6:0",
      "alpha" : 1,
      "operation" : 1,
      "weights" : {

      },
      "fused_relu" : 0,
      "debug_info" : "FeatureExtractor\/MobilenetV3\/expanded_conv_6\/expand\/hard_swish\/mul:0",
      "top" : "FeatureExtractor\/MobilenetV3\/expanded_conv_6\/expand\/hard_swish\/mul:0",
      "type" : "elementwise",
      "name" : "FeatureExtractor\/MobilenetV3\/expanded_conv_6\/expand\/hard_swish\/mul:0",
      "beta" : 0
    },
    {
      "bottom" : "FeatureExtractor\/MobilenetV3\/expanded_conv_6\/expand\/hard_swish\/mul:0",
      "alpha" : 0.1666666716337204,
      "operation" : 1,
      "weights" : {

      },
      "fused_relu" : 0,
      "debug_info" : "FeatureExtractor\/MobilenetV3\/expanded_conv_6\/expand\/hard_swish\/mul_1:0",
      "top" : "FeatureExtractor\/MobilenetV3\/expanded_conv_6\/expand\/hard_swish\/mul_1:0",
      "type" : "elementwise",
      "name" : "FeatureExtractor\/MobilenetV3\/expanded_conv_6\/expand\/hard_swish\/mul_1:0",
      "beta" : 0
    },
    {
      "pad_r" : 0,
      "fused_relu" : 0,
      "fused_tanh" : 0,
      "debug_info" : "FeatureExtractor\/MobilenetV3\/expanded_conv_6\/depthwise\/depthwise:0",
      "pad_fill_mode" : 0,
      "pad_b" : 0,
      "pad_l" : 0,
      "top" : "FeatureExtractor\/MobilenetV3\/expanded_conv_6\/depthwise\/BatchNorm\/FusedBatchNorm:0",
      "K" : 120,
      "blob_biases" : 163,
      "name" : "FeatureExtractor\/MobilenetV3\/expanded_conv_6\/depthwise\/depthwise:0",
      "has_batch_norm" : 0,
      "type" : "convolution",
      "n_groups" : 120,
      "pad_t" : 0,
      "has_biases" : 1,
      "C" : 120,
      "bottom" : "FeatureExtractor\/MobilenetV3\/expanded_conv_6\/expand\/hard_swish\/mul_1:0",
      "weights" : {
        "W_U8" : 165,
        "lut_to_float32" : 167
      },
      "Nx" : 5,
      "pad_mode" : 1,
      "pad_value" : 0,
      "Ny" : 5,
      "n_parallel" : 1
    },
    {
      "bottom" : "FeatureExtractor\/MobilenetV3\/expanded_conv_6\/depthwise\/BatchNorm\/FusedBatchNorm:0",
      "alpha" : 3,
      "operation" : 0,
      "weights" : {

      },
      "fused_relu" : 0,
      "debug_info" : "FeatureExtractor\/MobilenetV3\/expanded_conv_6\/depthwise\/hard_swish\/add:0",
      "top" : "FeatureExtractor\/MobilenetV3\/expanded_conv_6\/depthwise\/hard_swish\/add:0",
      "type" : "elementwise",
      "name" : "FeatureExtractor\/MobilenetV3\/expanded_conv_6\/depthwise\/hard_swish\/add:0",
      "beta" : 0
    },
    {
      "bottom" : "FeatureExtractor\/MobilenetV3\/expanded_conv_6\/depthwise\/hard_swish\/add:0",
      "weights" : {

      },
      "mode" : 0,
      "debug_info" : "relu_FeatureExtractor\/MobilenetV3\/expanded_conv_6\/depthwise\/hard_swish\/Relu6:0",
      "top" : "relu_FeatureExtractor\/MobilenetV3\/expanded_conv_6\/depthwise\/hard_swish\/Relu6:0",
      "type" : "activation",
      "name" : "relu_FeatureExtractor\/MobilenetV3\/expanded_conv_6\/depthwise\/hard_swish\/Relu6:0"
    },
    {
      "alpha" : -1,
      "bottom" : "relu_FeatureExtractor\/MobilenetV3\/expanded_conv_6\/depthwise\/hard_swish\/Relu6:0",
      "weights" : {

      },
      "mode" : 6,
      "debug_info" : "relu_FeatureExtractor\/MobilenetV3\/expanded_conv_6\/depthwise\/hard_swish\/Relu6:0_neg",
      "top" : "relu_FeatureExtractor\/MobilenetV3\/expanded_conv_6\/depthwise\/hard_swish\/Relu6:0_neg",
      "type" : "activation",
      "name" : "relu_FeatureExtractor\/MobilenetV3\/expanded_conv_6\/depthwise\/hard_swish\/Relu6:0_neg",
      "beta" : 0
    },
    {
      "bottom" : "relu_FeatureExtractor\/MobilenetV3\/expanded_conv_6\/depthwise\/hard_swish\/Relu6:0_neg",
      "alpha" : -6,
      "operation" : 25,
      "weights" : {

      },
      "fused_relu" : 0,
      "debug_info" : "relu_FeatureExtractor\/MobilenetV3\/expanded_conv_6\/depthwise\/hard_swish\/Relu6:0_clip",
      "top" : "relu_FeatureExtractor\/MobilenetV3\/expanded_conv_6\/depthwise\/hard_swish\/Relu6:0_clip",
      "type" : "elementwise",
      "name" : "relu_FeatureExtractor\/MobilenetV3\/expanded_conv_6\/depthwise\/hard_swish\/Relu6:0_clip",
      "beta" : 0
    },
    {
      "alpha" : -1,
      "bottom" : "relu_FeatureExtractor\/MobilenetV3\/expanded_conv_6\/depthwise\/hard_swish\/Relu6:0_clip",
      "weights" : {

      },
      "mode" : 6,
      "debug_info" : "FeatureExtractor\/MobilenetV3\/expanded_conv_6\/depthwise\/hard_swish\/Relu6:0",
      "top" : "FeatureExtractor\/MobilenetV3\/expanded_conv_6\/depthwise\/hard_swish\/Relu6:0",
      "type" : "activation",
      "name" : "FeatureExtractor\/MobilenetV3\/expanded_conv_6\/depthwise\/hard_swish\/Relu6:0",
      "beta" : 0
    },
    {
      "bottom" : "FeatureExtractor\/MobilenetV3\/expanded_conv_6\/depthwise\/BatchNorm\/FusedBatchNorm:0,FeatureExtractor\/MobilenetV3\/expanded_conv_6\/depthwise\/hard_swish\/Relu6:0",
      "alpha" : 1,
      "operation" : 1,
      "weights" : {

      },
      "fused_relu" : 0,
      "debug_info" : "FeatureExtractor\/MobilenetV3\/expanded_conv_6\/depthwise\/hard_swish\/mul:0",
      "top" : "FeatureExtractor\/MobilenetV3\/expanded_conv_6\/depthwise\/hard_swish\/mul:0",
      "type" : "elementwise",
      "name" : "FeatureExtractor\/MobilenetV3\/expanded_conv_6\/depthwise\/hard_swish\/mul:0",
      "beta" : 0
    },
    {
      "bottom" : "FeatureExtractor\/MobilenetV3\/expanded_conv_6\/depthwise\/hard_swish\/mul:0",
      "alpha" : 0.1666666716337204,
      "operation" : 1,
      "weights" : {

      },
      "fused_relu" : 0,
      "debug_info" : "FeatureExtractor\/MobilenetV3\/expanded_conv_6\/depthwise\/hard_swish\/mul_1:0",
      "top" : "FeatureExtractor\/MobilenetV3\/expanded_conv_6\/depthwise\/hard_swish\/mul_1:0",
      "type" : "elementwise",
      "name" : "FeatureExtractor\/MobilenetV3\/expanded_conv_6\/depthwise\/hard_swish\/mul_1:0",
      "beta" : 0
    },
    {
      "pad_r" : 0,
      "debug_info" : "FeatureExtractor\/MobilenetV3\/expanded_conv_6\/squeeze_excite\/Mean:0",
      "pad_fill_mode" : 0,
      "pad_b" : 0,
      "pad_l" : 0,
      "size_x" : 19,
      "is_global" : 1,
      "top" : "FeatureExtractor\/MobilenetV3\/expanded_conv_6\/squeeze_excite\/Mean:0",
      "top_shape_style" : 0,
      "stride_x" : 1,
      "avg_or_max" : 0,
      "average_count_exclude_padding" : 0,
      "type" : "pool",
      "name" : "FeatureExtractor\/MobilenetV3\/expanded_conv_6\/squeeze_excite\/Mean:0",
      "pad_t" : 0,
      "stride_y" : 1,
      "bottom" : "FeatureExtractor\/MobilenetV3\/expanded_conv_6\/depthwise\/hard_swish\/mul_1:0",
      "weights" : {

      },
      "pad_mode" : 2,
      "size_y" : 19,
      "pad_value" : 0
    },
    {
      "pad_r" : 0,
      "fused_relu" : 1,
      "fused_tanh" : 0,
      "debug_info" : "FeatureExtractor\/MobilenetV3\/expanded_conv_6\/squeeze_excite\/Conv\/Conv2D:0",
      "pad_fill_mode" : 0,
      "pad_b" : 0,
      "pad_l" : 0,
      "top" : "FeatureExtractor\/MobilenetV3\/expanded_conv_6\/squeeze_excite\/Conv\/Relu:0",
      "K" : 120,
      "blob_biases" : 169,
      "name" : "FeatureExtractor\/MobilenetV3\/expanded_conv_6\/squeeze_excite\/Conv\/Conv2D:0",
      "has_batch_norm" : 0,
      "type" : "convolution",
      "n_groups" : 1,
      "pad_t" : 0,
      "has_biases" : 1,
      "C" : 32,
      "bottom" : "FeatureExtractor\/MobilenetV3\/expanded_conv_6\/squeeze_excite\/Mean:0",
      "weights" : {
        "W_U8" : 171,
        "lut_to_float32" : 173
      },
      "Nx" : 1,
      "pad_mode" : 1,
      "pad_value" : 0,
      "Ny" : 1,
      "n_parallel" : 1
    },
    {
      "pad_r" : 0,
      "fused_relu" : 0,
      "fused_tanh" : 0,
      "debug_info" : "FeatureExtractor\/MobilenetV3\/expanded_conv_6\/squeeze_excite\/Conv_1\/Conv2D:0",
      "pad_fill_mode" : 0,
      "pad_b" : 0,
      "pad_l" : 0,
      "top" : "FeatureExtractor\/MobilenetV3\/expanded_conv_6\/squeeze_excite\/Conv_1\/BiasAdd:0",
      "K" : 32,
      "blob_biases" : 175,
      "name" : "FeatureExtractor\/MobilenetV3\/expanded_conv_6\/squeeze_excite\/Conv_1\/Conv2D:0",
      "has_batch_norm" : 0,
      "type" : "convolution",
      "n_groups" : 1,
      "pad_t" : 0,
      "has_biases" : 1,
      "C" : 120,
      "bottom" : "FeatureExtractor\/MobilenetV3\/expanded_conv_6\/squeeze_excite\/Conv\/Relu:0",
      "weights" : {
        "W_U8" : 177,
        "lut_to_float32" : 179
      },
      "Nx" : 1,
      "pad_mode" : 1,
      "pad_value" : 0,
      "Ny" : 1,
      "n_parallel" : 1
    },
    {
      "bottom" : "FeatureExtractor\/MobilenetV3\/expanded_conv_6\/squeeze_excite\/Conv_1\/BiasAdd:0",
      "alpha" : 3,
      "operation" : 0,
      "weights" : {

      },
      "fused_relu" : 0,
      "debug_info" : "FeatureExtractor\/MobilenetV3\/expanded_conv_6\/squeeze_excite\/Conv_1\/add:0",
      "top" : "FeatureExtractor\/MobilenetV3\/expanded_conv_6\/squeeze_excite\/Conv_1\/add:0",
      "type" : "elementwise",
      "name" : "FeatureExtractor\/MobilenetV3\/expanded_conv_6\/squeeze_excite\/Conv_1\/add:0",
      "beta" : 0
    },
    {
      "bottom" : "FeatureExtractor\/MobilenetV3\/expanded_conv_6\/squeeze_excite\/Conv_1\/add:0",
      "weights" : {

      },
      "mode" : 0,
      "debug_info" : "relu_FeatureExtractor\/MobilenetV3\/expanded_conv_6\/squeeze_excite\/Conv_1\/Relu6:0",
      "top" : "relu_FeatureExtractor\/MobilenetV3\/expanded_conv_6\/squeeze_excite\/Conv_1\/Relu6:0",
      "type" : "activation",
      "name" : "relu_FeatureExtractor\/MobilenetV3\/expanded_conv_6\/squeeze_excite\/Conv_1\/Relu6:0"
    },
    {
      "alpha" : -1,
      "bottom" : "relu_FeatureExtractor\/MobilenetV3\/expanded_conv_6\/squeeze_excite\/Conv_1\/Relu6:0",
      "weights" : {

      },
      "mode" : 6,
      "debug_info" : "relu_FeatureExtractor\/MobilenetV3\/expanded_conv_6\/squeeze_excite\/Conv_1\/Relu6:0_neg",
      "top" : "relu_FeatureExtractor\/MobilenetV3\/expanded_conv_6\/squeeze_excite\/Conv_1\/Relu6:0_neg",
      "type" : "activation",
      "name" : "relu_FeatureExtractor\/MobilenetV3\/expanded_conv_6\/squeeze_excite\/Conv_1\/Relu6:0_neg",
      "beta" : 0
    },
    {
      "bottom" : "relu_FeatureExtractor\/MobilenetV3\/expanded_conv_6\/squeeze_excite\/Conv_1\/Relu6:0_neg",
      "alpha" : -6,
      "operation" : 25,
      "weights" : {

      },
      "fused_relu" : 0,
      "debug_info" : "relu_FeatureExtractor\/MobilenetV3\/expanded_conv_6\/squeeze_excite\/Conv_1\/Relu6:0_clip",
      "top" : "relu_FeatureExtractor\/MobilenetV3\/expanded_conv_6\/squeeze_excite\/Conv_1\/Relu6:0_clip",
      "type" : "elementwise",
      "name" : "relu_FeatureExtractor\/MobilenetV3\/expanded_conv_6\/squeeze_excite\/Conv_1\/Relu6:0_clip",
      "beta" : 0
    },
    {
      "alpha" : -1,
      "bottom" : "relu_FeatureExtractor\/MobilenetV3\/expanded_conv_6\/squeeze_excite\/Conv_1\/Relu6:0_clip",
      "weights" : {

      },
      "mode" : 6,
      "debug_info" : "FeatureExtractor\/MobilenetV3\/expanded_conv_6\/squeeze_excite\/Conv_1\/Relu6:0",
      "top" : "FeatureExtractor\/MobilenetV3\/expanded_conv_6\/squeeze_excite\/Conv_1\/Relu6:0",
      "type" : "activation",
      "name" : "FeatureExtractor\/MobilenetV3\/expanded_conv_6\/squeeze_excite\/Conv_1\/Relu6:0",
      "beta" : 0
    },
    {
      "bottom" : "FeatureExtractor\/MobilenetV3\/expanded_conv_6\/squeeze_excite\/Conv_1\/Relu6:0",
      "alpha" : 0.16666999459266663,
      "operation" : 1,
      "weights" : {

      },
      "fused_relu" : 0,
      "debug_info" : "FeatureExtractor\/MobilenetV3\/expanded_conv_6\/squeeze_excite\/Conv_1\/mul:0",
      "top" : "FeatureExtractor\/MobilenetV3\/expanded_conv_6\/squeeze_excite\/Conv_1\/mul:0",
      "type" : "elementwise",
      "name" : "FeatureExtractor\/MobilenetV3\/expanded_conv_6\/squeeze_excite\/Conv_1\/mul:0",
      "beta" : 0
    },
    {
      "bottom" : "FeatureExtractor\/MobilenetV3\/expanded_conv_6\/depthwise\/hard_swish\/mul_1:0,FeatureExtractor\/MobilenetV3\/expanded_conv_6\/squeeze_excite\/Conv_1\/mul:0",
      "alpha" : 1,
      "operation" : 1,
      "weights" : {

      },
      "fused_relu" : 0,
      "debug_info" : "FeatureExtractor\/MobilenetV3\/expanded_conv_6\/squeeze_excite\/mul:0",
      "top" : "FeatureExtractor\/MobilenetV3\/expanded_conv_6\/squeeze_excite\/mul:0",
      "type" : "elementwise",
      "name" : "FeatureExtractor\/MobilenetV3\/expanded_conv_6\/squeeze_excite\/mul:0",
      "beta" : 0
    },
    {
      "pad_r" : 0,
      "fused_relu" : 0,
      "fused_tanh" : 0,
      "debug_info" : "FeatureExtractor\/MobilenetV3\/expanded_conv_6\/project\/Conv2D:0",
      "pad_fill_mode" : 0,
      "pad_b" : 0,
      "pad_l" : 0,
      "top" : "FeatureExtractor\/MobilenetV3\/expanded_conv_6\/project\/BatchNorm\/FusedBatchNorm:0",
      "K" : 120,
      "blob_biases" : 181,
      "name" : "FeatureExtractor\/MobilenetV3\/expanded_conv_6\/project\/Conv2D:0",
      "has_batch_norm" : 0,
      "type" : "convolution",
      "n_groups" : 1,
      "pad_t" : 0,
      "has_biases" : 1,
      "C" : 48,
      "bottom" : "FeatureExtractor\/MobilenetV3\/expanded_conv_6\/squeeze_excite\/mul:0",
      "weights" : {
        "W_U8" : 183,
        "lut_to_float32" : 185
      },
      "Nx" : 1,
      "pad_mode" : 1,
      "pad_value" : 0,
      "Ny" : 1,
      "n_parallel" : 1
    },
    {
      "pad_r" : 0,
      "fused_relu" : 0,
      "fused_tanh" : 0,
      "debug_info" : "FeatureExtractor\/MobilenetV3\/expanded_conv_7\/expand\/Conv2D:0",
      "pad_fill_mode" : 0,
      "pad_b" : 0,
      "pad_l" : 0,
      "top" : "FeatureExtractor\/MobilenetV3\/expanded_conv_7\/expand\/BatchNorm\/FusedBatchNorm:0",
      "K" : 48,
      "blob_biases" : 187,
      "name" : "FeatureExtractor\/MobilenetV3\/expanded_conv_7\/expand\/Conv2D:0",
      "has_batch_norm" : 0,
      "type" : "convolution",
      "n_groups" : 1,
      "pad_t" : 0,
      "has_biases" : 1,
      "C" : 144,
      "bottom" : "FeatureExtractor\/MobilenetV3\/expanded_conv_6\/project\/BatchNorm\/FusedBatchNorm:0",
      "weights" : {
        "W_U8" : 189,
        "lut_to_float32" : 191
      },
      "Nx" : 1,
      "pad_mode" : 1,
      "pad_value" : 0,
      "Ny" : 1,
      "n_parallel" : 1
    },
    {
      "bottom" : "FeatureExtractor\/MobilenetV3\/expanded_conv_7\/expand\/BatchNorm\/FusedBatchNorm:0",
      "alpha" : 3,
      "operation" : 0,
      "weights" : {

      },
      "fused_relu" : 0,
      "debug_info" : "FeatureExtractor\/MobilenetV3\/expanded_conv_7\/expand\/hard_swish\/add:0",
      "top" : "FeatureExtractor\/MobilenetV3\/expanded_conv_7\/expand\/hard_swish\/add:0",
      "type" : "elementwise",
      "name" : "FeatureExtractor\/MobilenetV3\/expanded_conv_7\/expand\/hard_swish\/add:0",
      "beta" : 0
    },
    {
      "bottom" : "FeatureExtractor\/MobilenetV3\/expanded_conv_7\/expand\/hard_swish\/add:0",
      "weights" : {

      },
      "mode" : 0,
      "debug_info" : "relu_FeatureExtractor\/MobilenetV3\/expanded_conv_7\/expand\/hard_swish\/Relu6:0",
      "top" : "relu_FeatureExtractor\/MobilenetV3\/expanded_conv_7\/expand\/hard_swish\/Relu6:0",
      "type" : "activation",
      "name" : "relu_FeatureExtractor\/MobilenetV3\/expanded_conv_7\/expand\/hard_swish\/Relu6:0"
    },
    {
      "alpha" : -1,
      "bottom" : "relu_FeatureExtractor\/MobilenetV3\/expanded_conv_7\/expand\/hard_swish\/Relu6:0",
      "weights" : {

      },
      "mode" : 6,
      "debug_info" : "relu_FeatureExtractor\/MobilenetV3\/expanded_conv_7\/expand\/hard_swish\/Relu6:0_neg",
      "top" : "relu_FeatureExtractor\/MobilenetV3\/expanded_conv_7\/expand\/hard_swish\/Relu6:0_neg",
      "type" : "activation",
      "name" : "relu_FeatureExtractor\/MobilenetV3\/expanded_conv_7\/expand\/hard_swish\/Relu6:0_neg",
      "beta" : 0
    },
    {
      "bottom" : "relu_FeatureExtractor\/MobilenetV3\/expanded_conv_7\/expand\/hard_swish\/Relu6:0_neg",
      "alpha" : -6,
      "operation" : 25,
      "weights" : {

      },
      "fused_relu" : 0,
      "debug_info" : "relu_FeatureExtractor\/MobilenetV3\/expanded_conv_7\/expand\/hard_swish\/Relu6:0_clip",
      "top" : "relu_FeatureExtractor\/MobilenetV3\/expanded_conv_7\/expand\/hard_swish\/Relu6:0_clip",
      "type" : "elementwise",
      "name" : "relu_FeatureExtractor\/MobilenetV3\/expanded_conv_7\/expand\/hard_swish\/Relu6:0_clip",
      "beta" : 0
    },
    {
      "alpha" : -1,
      "bottom" : "relu_FeatureExtractor\/MobilenetV3\/expanded_conv_7\/expand\/hard_swish\/Relu6:0_clip",
      "weights" : {

      },
      "mode" : 6,
      "debug_info" : "FeatureExtractor\/MobilenetV3\/expanded_conv_7\/expand\/hard_swish\/Relu6:0",
      "top" : "FeatureExtractor\/MobilenetV3\/expanded_conv_7\/expand\/hard_swish\/Relu6:0",
      "type" : "activation",
      "name" : "FeatureExtractor\/MobilenetV3\/expanded_conv_7\/expand\/hard_swish\/Relu6:0",
      "beta" : 0
    },
    {
      "bottom" : "FeatureExtractor\/MobilenetV3\/expanded_conv_7\/expand\/BatchNorm\/FusedBatchNorm:0,FeatureExtractor\/MobilenetV3\/expanded_conv_7\/expand\/hard_swish\/Relu6:0",
      "alpha" : 1,
      "operation" : 1,
      "weights" : {

      },
      "fused_relu" : 0,
      "debug_info" : "FeatureExtractor\/MobilenetV3\/expanded_conv_7\/expand\/hard_swish\/mul:0",
      "top" : "FeatureExtractor\/MobilenetV3\/expanded_conv_7\/expand\/hard_swish\/mul:0",
      "type" : "elementwise",
      "name" : "FeatureExtractor\/MobilenetV3\/expanded_conv_7\/expand\/hard_swish\/mul:0",
      "beta" : 0
    },
    {
      "bottom" : "FeatureExtractor\/MobilenetV3\/expanded_conv_7\/expand\/hard_swish\/mul:0",
      "alpha" : 0.1666666716337204,
      "operation" : 1,
      "weights" : {

      },
      "fused_relu" : 0,
      "debug_info" : "FeatureExtractor\/MobilenetV3\/expanded_conv_7\/expand\/hard_swish\/mul_1:0",
      "top" : "FeatureExtractor\/MobilenetV3\/expanded_conv_7\/expand\/hard_swish\/mul_1:0",
      "type" : "elementwise",
      "name" : "FeatureExtractor\/MobilenetV3\/expanded_conv_7\/expand\/hard_swish\/mul_1:0",
      "beta" : 0
    },
    {
      "pad_r" : 0,
      "fused_relu" : 0,
      "fused_tanh" : 0,
      "debug_info" : "FeatureExtractor\/MobilenetV3\/expanded_conv_7\/depthwise\/depthwise:0",
      "pad_fill_mode" : 0,
      "pad_b" : 0,
      "pad_l" : 0,
      "top" : "FeatureExtractor\/MobilenetV3\/expanded_conv_7\/depthwise\/BatchNorm\/FusedBatchNorm:0",
      "K" : 144,
      "blob_biases" : 193,
      "name" : "FeatureExtractor\/MobilenetV3\/expanded_conv_7\/depthwise\/depthwise:0",
      "has_batch_norm" : 0,
      "type" : "convolution",
      "n_groups" : 144,
      "pad_t" : 0,
      "has_biases" : 1,
      "C" : 144,
      "bottom" : "FeatureExtractor\/MobilenetV3\/expanded_conv_7\/expand\/hard_swish\/mul_1:0",
      "weights" : {
        "W_U8" : 195,
        "lut_to_float32" : 197
      },
      "Nx" : 5,
      "pad_mode" : 1,
      "pad_value" : 0,
      "Ny" : 5,
      "n_parallel" : 1
    },
    {
      "bottom" : "FeatureExtractor\/MobilenetV3\/expanded_conv_7\/depthwise\/BatchNorm\/FusedBatchNorm:0",
      "alpha" : 3,
      "operation" : 0,
      "weights" : {

      },
      "fused_relu" : 0,
      "debug_info" : "FeatureExtractor\/MobilenetV3\/expanded_conv_7\/depthwise\/hard_swish\/add:0",
      "top" : "FeatureExtractor\/MobilenetV3\/expanded_conv_7\/depthwise\/hard_swish\/add:0",
      "type" : "elementwise",
      "name" : "FeatureExtractor\/MobilenetV3\/expanded_conv_7\/depthwise\/hard_swish\/add:0",
      "beta" : 0
    },
    {
      "bottom" : "FeatureExtractor\/MobilenetV3\/expanded_conv_7\/depthwise\/hard_swish\/add:0",
      "weights" : {

      },
      "mode" : 0,
      "debug_info" : "relu_FeatureExtractor\/MobilenetV3\/expanded_conv_7\/depthwise\/hard_swish\/Relu6:0",
      "top" : "relu_FeatureExtractor\/MobilenetV3\/expanded_conv_7\/depthwise\/hard_swish\/Relu6:0",
      "type" : "activation",
      "name" : "relu_FeatureExtractor\/MobilenetV3\/expanded_conv_7\/depthwise\/hard_swish\/Relu6:0"
    },
    {
      "alpha" : -1,
      "bottom" : "relu_FeatureExtractor\/MobilenetV3\/expanded_conv_7\/depthwise\/hard_swish\/Relu6:0",
      "weights" : {

      },
      "mode" : 6,
      "debug_info" : "relu_FeatureExtractor\/MobilenetV3\/expanded_conv_7\/depthwise\/hard_swish\/Relu6:0_neg",
      "top" : "relu_FeatureExtractor\/MobilenetV3\/expanded_conv_7\/depthwise\/hard_swish\/Relu6:0_neg",
      "type" : "activation",
      "name" : "relu_FeatureExtractor\/MobilenetV3\/expanded_conv_7\/depthwise\/hard_swish\/Relu6:0_neg",
      "beta" : 0
    },
    {
      "bottom" : "relu_FeatureExtractor\/MobilenetV3\/expanded_conv_7\/depthwise\/hard_swish\/Relu6:0_neg",
      "alpha" : -6,
      "operation" : 25,
      "weights" : {

      },
      "fused_relu" : 0,
      "debug_info" : "relu_FeatureExtractor\/MobilenetV3\/expanded_conv_7\/depthwise\/hard_swish\/Relu6:0_clip",
      "top" : "relu_FeatureExtractor\/MobilenetV3\/expanded_conv_7\/depthwise\/hard_swish\/Relu6:0_clip",
      "type" : "elementwise",
      "name" : "relu_FeatureExtractor\/MobilenetV3\/expanded_conv_7\/depthwise\/hard_swish\/Relu6:0_clip",
      "beta" : 0
    },
    {
      "alpha" : -1,
      "bottom" : "relu_FeatureExtractor\/MobilenetV3\/expanded_conv_7\/depthwise\/hard_swish\/Relu6:0_clip",
      "weights" : {

      },
      "mode" : 6,
      "debug_info" : "FeatureExtractor\/MobilenetV3\/expanded_conv_7\/depthwise\/hard_swish\/Relu6:0",
      "top" : "FeatureExtractor\/MobilenetV3\/expanded_conv_7\/depthwise\/hard_swish\/Relu6:0",
      "type" : "activation",
      "name" : "FeatureExtractor\/MobilenetV3\/expanded_conv_7\/depthwise\/hard_swish\/Relu6:0",
      "beta" : 0
    },
    {
      "bottom" : "FeatureExtractor\/MobilenetV3\/expanded_conv_7\/depthwise\/BatchNorm\/FusedBatchNorm:0,FeatureExtractor\/MobilenetV3\/expanded_conv_7\/depthwise\/hard_swish\/Relu6:0",
      "alpha" : 1,
      "operation" : 1,
      "weights" : {

      },
      "fused_relu" : 0,
      "debug_info" : "FeatureExtractor\/MobilenetV3\/expanded_conv_7\/depthwise\/hard_swish\/mul:0",
      "top" : "FeatureExtractor\/MobilenetV3\/expanded_conv_7\/depthwise\/hard_swish\/mul:0",
      "type" : "elementwise",
      "name" : "FeatureExtractor\/MobilenetV3\/expanded_conv_7\/depthwise\/hard_swish\/mul:0",
      "beta" : 0
    },
    {
      "bottom" : "FeatureExtractor\/MobilenetV3\/expanded_conv_7\/depthwise\/hard_swish\/mul:0",
      "alpha" : 0.1666666716337204,
      "operation" : 1,
      "weights" : {

      },
      "fused_relu" : 0,
      "debug_info" : "FeatureExtractor\/MobilenetV3\/expanded_conv_7\/depthwise\/hard_swish\/mul_1:0",
      "top" : "FeatureExtractor\/MobilenetV3\/expanded_conv_7\/depthwise\/hard_swish\/mul_1:0",
      "type" : "elementwise",
      "name" : "FeatureExtractor\/MobilenetV3\/expanded_conv_7\/depthwise\/hard_swish\/mul_1:0",
      "beta" : 0
    },
    {
      "pad_r" : 0,
      "debug_info" : "FeatureExtractor\/MobilenetV3\/expanded_conv_7\/squeeze_excite\/Mean:0",
      "pad_fill_mode" : 0,
      "pad_b" : 0,
      "pad_l" : 0,
      "size_x" : 19,
      "is_global" : 1,
      "top" : "FeatureExtractor\/MobilenetV3\/expanded_conv_7\/squeeze_excite\/Mean:0",
      "top_shape_style" : 0,
      "stride_x" : 1,
      "avg_or_max" : 0,
      "average_count_exclude_padding" : 0,
      "type" : "pool",
      "name" : "FeatureExtractor\/MobilenetV3\/expanded_conv_7\/squeeze_excite\/Mean:0",
      "pad_t" : 0,
      "stride_y" : 1,
      "bottom" : "FeatureExtractor\/MobilenetV3\/expanded_conv_7\/depthwise\/hard_swish\/mul_1:0",
      "weights" : {

      },
      "pad_mode" : 2,
      "size_y" : 19,
      "pad_value" : 0
    },
    {
      "pad_r" : 0,
      "fused_relu" : 1,
      "fused_tanh" : 0,
      "debug_info" : "FeatureExtractor\/MobilenetV3\/expanded_conv_7\/squeeze_excite\/Conv\/Conv2D:0",
      "pad_fill_mode" : 0,
      "pad_b" : 0,
      "pad_l" : 0,
      "top" : "FeatureExtractor\/MobilenetV3\/expanded_conv_7\/squeeze_excite\/Conv\/Relu:0",
      "K" : 144,
      "blob_biases" : 199,
      "name" : "FeatureExtractor\/MobilenetV3\/expanded_conv_7\/squeeze_excite\/Conv\/Conv2D:0",
      "has_batch_norm" : 0,
      "type" : "convolution",
      "n_groups" : 1,
      "pad_t" : 0,
      "has_biases" : 1,
      "C" : 40,
      "bottom" : "FeatureExtractor\/MobilenetV3\/expanded_conv_7\/squeeze_excite\/Mean:0",
      "weights" : {
        "W_U8" : 201,
        "lut_to_float32" : 203
      },
      "Nx" : 1,
      "pad_mode" : 1,
      "pad_value" : 0,
      "Ny" : 1,
      "n_parallel" : 1
    },
    {
      "pad_r" : 0,
      "fused_relu" : 0,
      "fused_tanh" : 0,
      "debug_info" : "FeatureExtractor\/MobilenetV3\/expanded_conv_7\/squeeze_excite\/Conv_1\/Conv2D:0",
      "pad_fill_mode" : 0,
      "pad_b" : 0,
      "pad_l" : 0,
      "top" : "FeatureExtractor\/MobilenetV3\/expanded_conv_7\/squeeze_excite\/Conv_1\/BiasAdd:0",
      "K" : 40,
      "blob_biases" : 205,
      "name" : "FeatureExtractor\/MobilenetV3\/expanded_conv_7\/squeeze_excite\/Conv_1\/Conv2D:0",
      "has_batch_norm" : 0,
      "type" : "convolution",
      "n_groups" : 1,
      "pad_t" : 0,
      "has_biases" : 1,
      "C" : 144,
      "bottom" : "FeatureExtractor\/MobilenetV3\/expanded_conv_7\/squeeze_excite\/Conv\/Relu:0",
      "weights" : {
        "W_U8" : 207,
        "lut_to_float32" : 209
      },
      "Nx" : 1,
      "pad_mode" : 1,
      "pad_value" : 0,
      "Ny" : 1,
      "n_parallel" : 1
    },
    {
      "bottom" : "FeatureExtractor\/MobilenetV3\/expanded_conv_7\/squeeze_excite\/Conv_1\/BiasAdd:0",
      "alpha" : 3,
      "operation" : 0,
      "weights" : {

      },
      "fused_relu" : 0,
      "debug_info" : "FeatureExtractor\/MobilenetV3\/expanded_conv_7\/squeeze_excite\/Conv_1\/add:0",
      "top" : "FeatureExtractor\/MobilenetV3\/expanded_conv_7\/squeeze_excite\/Conv_1\/add:0",
      "type" : "elementwise",
      "name" : "FeatureExtractor\/MobilenetV3\/expanded_conv_7\/squeeze_excite\/Conv_1\/add:0",
      "beta" : 0
    },
    {
      "bottom" : "FeatureExtractor\/MobilenetV3\/expanded_conv_7\/squeeze_excite\/Conv_1\/add:0",
      "weights" : {

      },
      "mode" : 0,
      "debug_info" : "relu_FeatureExtractor\/MobilenetV3\/expanded_conv_7\/squeeze_excite\/Conv_1\/Relu6:0",
      "top" : "relu_FeatureExtractor\/MobilenetV3\/expanded_conv_7\/squeeze_excite\/Conv_1\/Relu6:0",
      "type" : "activation",
      "name" : "relu_FeatureExtractor\/MobilenetV3\/expanded_conv_7\/squeeze_excite\/Conv_1\/Relu6:0"
    },
    {
      "alpha" : -1,
      "bottom" : "relu_FeatureExtractor\/MobilenetV3\/expanded_conv_7\/squeeze_excite\/Conv_1\/Relu6:0",
      "weights" : {

      },
      "mode" : 6,
      "debug_info" : "relu_FeatureExtractor\/MobilenetV3\/expanded_conv_7\/squeeze_excite\/Conv_1\/Relu6:0_neg",
      "top" : "relu_FeatureExtractor\/MobilenetV3\/expanded_conv_7\/squeeze_excite\/Conv_1\/Relu6:0_neg",
      "type" : "activation",
      "name" : "relu_FeatureExtractor\/MobilenetV3\/expanded_conv_7\/squeeze_excite\/Conv_1\/Relu6:0_neg",
      "beta" : 0
    },
    {
      "bottom" : "relu_FeatureExtractor\/MobilenetV3\/expanded_conv_7\/squeeze_excite\/Conv_1\/Relu6:0_neg",
      "alpha" : -6,
      "operation" : 25,
      "weights" : {

      },
      "fused_relu" : 0,
      "debug_info" : "relu_FeatureExtractor\/MobilenetV3\/expanded_conv_7\/squeeze_excite\/Conv_1\/Relu6:0_clip",
      "top" : "relu_FeatureExtractor\/MobilenetV3\/expanded_conv_7\/squeeze_excite\/Conv_1\/Relu6:0_clip",
      "type" : "elementwise",
      "name" : "relu_FeatureExtractor\/MobilenetV3\/expanded_conv_7\/squeeze_excite\/Conv_1\/Relu6:0_clip",
      "beta" : 0
    },
    {
      "alpha" : -1,
      "bottom" : "relu_FeatureExtractor\/MobilenetV3\/expanded_conv_7\/squeeze_excite\/Conv_1\/Relu6:0_clip",
      "weights" : {

      },
      "mode" : 6,
      "debug_info" : "FeatureExtractor\/MobilenetV3\/expanded_conv_7\/squeeze_excite\/Conv_1\/Relu6:0",
      "top" : "FeatureExtractor\/MobilenetV3\/expanded_conv_7\/squeeze_excite\/Conv_1\/Relu6:0",
      "type" : "activation",
      "name" : "FeatureExtractor\/MobilenetV3\/expanded_conv_7\/squeeze_excite\/Conv_1\/Relu6:0",
      "beta" : 0
    },
    {
      "bottom" : "FeatureExtractor\/MobilenetV3\/expanded_conv_7\/squeeze_excite\/Conv_1\/Relu6:0",
      "alpha" : 0.16666999459266663,
      "operation" : 1,
      "weights" : {

      },
      "fused_relu" : 0,
      "debug_info" : "FeatureExtractor\/MobilenetV3\/expanded_conv_7\/squeeze_excite\/Conv_1\/mul:0",
      "top" : "FeatureExtractor\/MobilenetV3\/expanded_conv_7\/squeeze_excite\/Conv_1\/mul:0",
      "type" : "elementwise",
      "name" : "FeatureExtractor\/MobilenetV3\/expanded_conv_7\/squeeze_excite\/Conv_1\/mul:0",
      "beta" : 0
    },
    {
      "bottom" : "FeatureExtractor\/MobilenetV3\/expanded_conv_7\/depthwise\/hard_swish\/mul_1:0,FeatureExtractor\/MobilenetV3\/expanded_conv_7\/squeeze_excite\/Conv_1\/mul:0",
      "alpha" : 1,
      "operation" : 1,
      "weights" : {

      },
      "fused_relu" : 0,
      "debug_info" : "FeatureExtractor\/MobilenetV3\/expanded_conv_7\/squeeze_excite\/mul:0",
      "top" : "FeatureExtractor\/MobilenetV3\/expanded_conv_7\/squeeze_excite\/mul:0",
      "type" : "elementwise",
      "name" : "FeatureExtractor\/MobilenetV3\/expanded_conv_7\/squeeze_excite\/mul:0",
      "beta" : 0
    },
    {
      "pad_r" : 0,
      "fused_relu" : 0,
      "fused_tanh" : 0,
      "debug_info" : "FeatureExtractor\/MobilenetV3\/expanded_conv_7\/project\/Conv2D:0",
      "pad_fill_mode" : 0,
      "pad_b" : 0,
      "pad_l" : 0,
      "top" : "FeatureExtractor\/MobilenetV3\/expanded_conv_7\/project\/BatchNorm\/FusedBatchNorm:0",
      "K" : 144,
      "blob_biases" : 211,
      "name" : "FeatureExtractor\/MobilenetV3\/expanded_conv_7\/project\/Conv2D:0",
      "has_batch_norm" : 0,
      "type" : "convolution",
      "n_groups" : 1,
      "pad_t" : 0,
      "has_biases" : 1,
      "C" : 48,
      "bottom" : "FeatureExtractor\/MobilenetV3\/expanded_conv_7\/squeeze_excite\/mul:0",
      "weights" : {
        "W_U8" : 213,
        "lut_to_float32" : 215
      },
      "Nx" : 1,
      "pad_mode" : 1,
      "pad_value" : 0,
      "Ny" : 1,
      "n_parallel" : 1
    },
    {
      "bottom" : "FeatureExtractor\/MobilenetV3\/expanded_conv_7\/project\/BatchNorm\/FusedBatchNorm:0,FeatureExtractor\/MobilenetV3\/expanded_conv_6\/project\/BatchNorm\/FusedBatchNorm:0",
      "alpha" : 1,
      "operation" : 0,
      "weights" : {

      },
      "fused_relu" : 0,
      "debug_info" : "FeatureExtractor\/MobilenetV3\/expanded_conv_7\/add:0",
      "top" : "FeatureExtractor\/MobilenetV3\/expanded_conv_7\/add:0",
      "type" : "elementwise",
      "name" : "FeatureExtractor\/MobilenetV3\/expanded_conv_7\/add:0",
      "beta" : 0
    },
    {
      "pad_r" : 0,
      "fused_relu" : 0,
      "fused_tanh" : 0,
      "debug_info" : "FeatureExtractor\/MobilenetV3\/expanded_conv_8\/expand\/Conv2D:0",
      "pad_fill_mode" : 0,
      "pad_b" : 0,
      "pad_l" : 0,
      "top" : "FeatureExtractor\/MobilenetV3\/expanded_conv_8\/expand\/BatchNorm\/FusedBatchNorm:0",
      "K" : 48,
      "blob_biases" : 217,
      "name" : "FeatureExtractor\/MobilenetV3\/expanded_conv_8\/expand\/Conv2D:0",
      "has_batch_norm" : 0,
      "type" : "convolution",
      "n_groups" : 1,
      "pad_t" : 0,
      "has_biases" : 1,
      "C" : 288,
      "bottom" : "FeatureExtractor\/MobilenetV3\/expanded_conv_7\/add:0",
      "weights" : {
        "W_U8" : 219,
        "lut_to_float32" : 221
      },
      "Nx" : 1,
      "pad_mode" : 1,
      "pad_value" : 0,
      "Ny" : 1,
      "n_parallel" : 1
    },
    {
      "bottom" : "FeatureExtractor\/MobilenetV3\/expanded_conv_8\/expand\/BatchNorm\/FusedBatchNorm:0",
      "alpha" : 3,
      "operation" : 0,
      "weights" : {

      },
      "fused_relu" : 0,
      "debug_info" : "FeatureExtractor\/MobilenetV3\/expanded_conv_8\/expand\/hard_swish\/add:0",
      "top" : "FeatureExtractor\/MobilenetV3\/expanded_conv_8\/expand\/hard_swish\/add:0",
      "type" : "elementwise",
      "name" : "FeatureExtractor\/MobilenetV3\/expanded_conv_8\/expand\/hard_swish\/add:0",
      "beta" : 0
    },
    {
      "bottom" : "FeatureExtractor\/MobilenetV3\/expanded_conv_8\/expand\/hard_swish\/add:0",
      "weights" : {

      },
      "mode" : 0,
      "debug_info" : "relu_FeatureExtractor\/MobilenetV3\/expanded_conv_8\/expand\/hard_swish\/Relu6:0",
      "top" : "relu_FeatureExtractor\/MobilenetV3\/expanded_conv_8\/expand\/hard_swish\/Relu6:0",
      "type" : "activation",
      "name" : "relu_FeatureExtractor\/MobilenetV3\/expanded_conv_8\/expand\/hard_swish\/Relu6:0"
    },
    {
      "alpha" : -1,
      "bottom" : "relu_FeatureExtractor\/MobilenetV3\/expanded_conv_8\/expand\/hard_swish\/Relu6:0",
      "weights" : {

      },
      "mode" : 6,
      "debug_info" : "relu_FeatureExtractor\/MobilenetV3\/expanded_conv_8\/expand\/hard_swish\/Relu6:0_neg",
      "top" : "relu_FeatureExtractor\/MobilenetV3\/expanded_conv_8\/expand\/hard_swish\/Relu6:0_neg",
      "type" : "activation",
      "name" : "relu_FeatureExtractor\/MobilenetV3\/expanded_conv_8\/expand\/hard_swish\/Relu6:0_neg",
      "beta" : 0
    },
    {
      "bottom" : "relu_FeatureExtractor\/MobilenetV3\/expanded_conv_8\/expand\/hard_swish\/Relu6:0_neg",
      "alpha" : -6,
      "operation" : 25,
      "weights" : {

      },
      "fused_relu" : 0,
      "debug_info" : "relu_FeatureExtractor\/MobilenetV3\/expanded_conv_8\/expand\/hard_swish\/Relu6:0_clip",
      "top" : "relu_FeatureExtractor\/MobilenetV3\/expanded_conv_8\/expand\/hard_swish\/Relu6:0_clip",
      "type" : "elementwise",
      "name" : "relu_FeatureExtractor\/MobilenetV3\/expanded_conv_8\/expand\/hard_swish\/Relu6:0_clip",
      "beta" : 0
    },
    {
      "alpha" : -1,
      "bottom" : "relu_FeatureExtractor\/MobilenetV3\/expanded_conv_8\/expand\/hard_swish\/Relu6:0_clip",
      "weights" : {

      },
      "mode" : 6,
      "debug_info" : "FeatureExtractor\/MobilenetV3\/expanded_conv_8\/expand\/hard_swish\/Relu6:0",
      "top" : "FeatureExtractor\/MobilenetV3\/expanded_conv_8\/expand\/hard_swish\/Relu6:0",
      "type" : "activation",
      "name" : "FeatureExtractor\/MobilenetV3\/expanded_conv_8\/expand\/hard_swish\/Relu6:0",
      "beta" : 0
    },
    {
      "bottom" : "FeatureExtractor\/MobilenetV3\/expanded_conv_8\/expand\/BatchNorm\/FusedBatchNorm:0,FeatureExtractor\/MobilenetV3\/expanded_conv_8\/expand\/hard_swish\/Relu6:0",
      "alpha" : 1,
      "operation" : 1,
      "weights" : {

      },
      "fused_relu" : 0,
      "debug_info" : "FeatureExtractor\/MobilenetV3\/expanded_conv_8\/expand\/hard_swish\/mul:0",
      "top" : "FeatureExtractor\/MobilenetV3\/expanded_conv_8\/expand\/hard_swish\/mul:0",
      "type" : "elementwise",
      "name" : "FeatureExtractor\/MobilenetV3\/expanded_conv_8\/expand\/hard_swish\/mul:0",
      "beta" : 0
    },
    {
      "bottom" : "FeatureExtractor\/MobilenetV3\/expanded_conv_8\/expand\/hard_swish\/mul:0",
      "alpha" : 0.1666666716337204,
      "operation" : 1,
      "weights" : {

      },
      "fused_relu" : 0,
      "debug_info" : "FeatureExtractor\/MobilenetV3\/expanded_conv_8\/expand\/hard_swish\/mul_1:0",
      "top" : "FeatureExtractor\/MobilenetV3\/expanded_conv_8\/expand\/hard_swish\/mul_1:0",
      "type" : "elementwise",
      "name" : "FeatureExtractor\/MobilenetV3\/expanded_conv_8\/expand\/hard_swish\/mul_1:0",
      "beta" : 0
    },
    {
      "pad_r" : 0,
      "fused_relu" : 1,
      "fused_tanh" : 0,
      "debug_info" : "BoxPredictor_0\/ClassPredictor_depthwise\/depthwise:0",
      "pad_fill_mode" : 0,
      "pad_b" : 0,
      "pad_l" : 0,
      "top" : "relu_BoxPredictor_0\/ClassPredictor_depthwise\/Relu6:0",
      "K" : 288,
      "blob_biases" : 223,
      "name" : "BoxPredictor_0\/ClassPredictor_depthwise\/depthwise:0",
      "has_batch_norm" : 0,
      "type" : "convolution",
      "n_groups" : 288,
      "pad_t" : 0,
      "has_biases" : 1,
      "C" : 288,
      "bottom" : "FeatureExtractor\/MobilenetV3\/expanded_conv_8\/expand\/hard_swish\/mul_1:0",
      "weights" : {
        "W_U8" : 225,
        "lut_to_float32" : 227
      },
      "Nx" : 3,
      "pad_mode" : 1,
      "pad_value" : 0,
      "Ny" : 3,
      "n_parallel" : 1
    },
    {
      "alpha" : -1,
      "bottom" : "relu_BoxPredictor_0\/ClassPredictor_depthwise\/Relu6:0",
      "weights" : {

      },
      "mode" : 6,
      "debug_info" : "relu_BoxPredictor_0\/ClassPredictor_depthwise\/Relu6:0_neg",
      "top" : "relu_BoxPredictor_0\/ClassPredictor_depthwise\/Relu6:0_neg",
      "type" : "activation",
      "name" : "relu_BoxPredictor_0\/ClassPredictor_depthwise\/Relu6:0_neg",
      "beta" : 0
    },
    {
      "bottom" : "relu_BoxPredictor_0\/ClassPredictor_depthwise\/Relu6:0_neg",
      "alpha" : -6,
      "operation" : 25,
      "weights" : {

      },
      "fused_relu" : 0,
      "debug_info" : "relu_BoxPredictor_0\/ClassPredictor_depthwise\/Relu6:0_clip",
      "top" : "relu_BoxPredictor_0\/ClassPredictor_depthwise\/Relu6:0_clip",
      "type" : "elementwise",
      "name" : "relu_BoxPredictor_0\/ClassPredictor_depthwise\/Relu6:0_clip",
      "beta" : 0
    },
    {
      "alpha" : -1,
      "bottom" : "relu_BoxPredictor_0\/ClassPredictor_depthwise\/Relu6:0_clip",
      "weights" : {

      },
      "mode" : 6,
      "debug_info" : "BoxPredictor_0\/ClassPredictor_depthwise\/Relu6:0",
      "top" : "BoxPredictor_0\/ClassPredictor_depthwise\/Relu6:0",
      "type" : "activation",
      "name" : "BoxPredictor_0\/ClassPredictor_depthwise\/Relu6:0",
      "beta" : 0
    },
    {
      "pad_r" : 0,
      "fused_relu" : 0,
      "fused_tanh" : 0,
      "debug_info" : "BoxPredictor_0\/ClassPredictor\/Conv2D:0",
      "pad_fill_mode" : 0,
      "pad_b" : 0,
      "pad_l" : 0,
      "top" : "BoxPredictor_0\/ClassPredictor\/BiasAdd:0",
      "K" : 288,
      "blob_biases" : 229,
      "name" : "BoxPredictor_0\/ClassPredictor\/Conv2D:0",
      "has_batch_norm" : 0,
      "type" : "convolution",
      "n_groups" : 1,
      "pad_t" : 0,
      "has_biases" : 1,
      "C" : 9,
      "bottom" : "BoxPredictor_0\/ClassPredictor_depthwise\/Relu6:0",
      "weights" : {
        "W_U8" : 231,
        "lut_to_float32" : 233
      },
      "Nx" : 1,
      "pad_mode" : 1,
      "pad_value" : 0,
      "Ny" : 1,
      "n_parallel" : 1
    },
    {
      "name" : "BoxPredictor_0\/Reshape_1:0",
      "weights" : {

      },
      "dst_w" : 1083,
      "version" : 1,
      "dst_n" : 0,
      "type" : "reshape",
      "dst_h" : 1,
      "mode" : 1,
      "bottom" : "BoxPredictor_0\/ClassPredictor\/BiasAdd:0",
      "debug_info" : "BoxPredictor_0\/Reshape_1:0",
      "dst_seq" : 1,
      "dst_k" : 3,
      "top" : "BoxPredictor_0\/Reshape_1:0"
    },
    {
      "pad_r" : 0,
      "fused_relu" : 1,
      "fused_tanh" : 0,
      "debug_info" : "BoxPredictor_0\/BoxEncodingPredictor_depthwise\/depthwise:0",
      "pad_fill_mode" : 0,
      "pad_b" : 0,
      "pad_l" : 0,
      "top" : "relu_BoxPredictor_0\/BoxEncodingPredictor_depthwise\/Relu6:0",
      "K" : 288,
      "blob_biases" : 235,
      "name" : "BoxPredictor_0\/BoxEncodingPredictor_depthwise\/depthwise:0",
      "has_batch_norm" : 0,
      "type" : "convolution",
      "n_groups" : 288,
      "pad_t" : 0,
      "has_biases" : 1,
      "C" : 288,
      "bottom" : "FeatureExtractor\/MobilenetV3\/expanded_conv_8\/expand\/hard_swish\/mul_1:0",
      "weights" : {
        "W_U8" : 237,
        "lut_to_float32" : 239
      },
      "Nx" : 3,
      "pad_mode" : 1,
      "pad_value" : 0,
      "Ny" : 3,
      "n_parallel" : 1
    },
    {
      "alpha" : -1,
      "bottom" : "relu_BoxPredictor_0\/BoxEncodingPredictor_depthwise\/Relu6:0",
      "weights" : {

      },
      "mode" : 6,
      "debug_info" : "relu_BoxPredictor_0\/BoxEncodingPredictor_depthwise\/Relu6:0_neg",
      "top" : "relu_BoxPredictor_0\/BoxEncodingPredictor_depthwise\/Relu6:0_neg",
      "type" : "activation",
      "name" : "relu_BoxPredictor_0\/BoxEncodingPredictor_depthwise\/Relu6:0_neg",
      "beta" : 0
    },
    {
      "bottom" : "relu_BoxPredictor_0\/BoxEncodingPredictor_depthwise\/Relu6:0_neg",
      "alpha" : -6,
      "operation" : 25,
      "weights" : {

      },
      "fused_relu" : 0,
      "debug_info" : "relu_BoxPredictor_0\/BoxEncodingPredictor_depthwise\/Relu6:0_clip",
      "top" : "relu_BoxPredictor_0\/BoxEncodingPredictor_depthwise\/Relu6:0_clip",
      "type" : "elementwise",
      "name" : "relu_BoxPredictor_0\/BoxEncodingPredictor_depthwise\/Relu6:0_clip",
      "beta" : 0
    },
    {
      "alpha" : -1,
      "bottom" : "relu_BoxPredictor_0\/BoxEncodingPredictor_depthwise\/Relu6:0_clip",
      "weights" : {

      },
      "mode" : 6,
      "debug_info" : "BoxPredictor_0\/BoxEncodingPredictor_depthwise\/Relu6:0",
      "top" : "BoxPredictor_0\/BoxEncodingPredictor_depthwise\/Relu6:0",
      "type" : "activation",
      "name" : "BoxPredictor_0\/BoxEncodingPredictor_depthwise\/Relu6:0",
      "beta" : 0
    },
    {
      "pad_r" : 0,
      "fused_relu" : 0,
      "fused_tanh" : 0,
      "debug_info" : "BoxPredictor_0\/BoxEncodingPredictor\/Conv2D:0",
      "pad_fill_mode" : 0,
      "pad_b" : 0,
      "pad_l" : 0,
      "top" : "BoxPredictor_0\/BoxEncodingPredictor\/BiasAdd:0",
      "K" : 288,
      "blob_biases" : 241,
      "name" : "BoxPredictor_0\/BoxEncodingPredictor\/Conv2D:0",
      "has_batch_norm" : 0,
      "type" : "convolution",
      "n_groups" : 1,
      "pad_t" : 0,
      "has_biases" : 1,
      "C" : 12,
      "bottom" : "BoxPredictor_0\/BoxEncodingPredictor_depthwise\/Relu6:0",
      "weights" : {
        "W_U8" : 243,
        "lut_to_float32" : 245
      },
      "Nx" : 1,
      "pad_mode" : 1,
      "pad_value" : 0,
      "Ny" : 1,
      "n_parallel" : 1
    },
    {
      "name" : "BoxPredictor_0\/Reshape:0",
      "weights" : {

      },
      "dst_w" : 1,
      "version" : 1,
      "dst_n" : 0,
      "type" : "reshape",
      "dst_h" : 1083,
      "mode" : 1,
      "bottom" : "BoxPredictor_0\/BoxEncodingPredictor\/BiasAdd:0",
      "debug_info" : "BoxPredictor_0\/Reshape:0",
      "dst_seq" : 1,
      "dst_k" : 4,
      "top" : "BoxPredictor_0\/Reshape:0"
    },
    {
      "pad_r" : 0,
      "fused_relu" : 0,
      "fused_tanh" : 0,
      "debug_info" : "FeatureExtractor\/MobilenetV3\/expanded_conv_8\/depthwise\/depthwise:0",
      "pad_fill_mode" : 0,
      "pad_b" : 0,
      "pad_l" : 0,
      "top" : "FeatureExtractor\/MobilenetV3\/expanded_conv_8\/depthwise\/BatchNorm\/FusedBatchNorm:0",
      "K" : 288,
      "blob_biases" : 247,
      "stride_x" : 2,
      "name" : "FeatureExtractor\/MobilenetV3\/expanded_conv_8\/depthwise\/depthwise:0",
      "has_batch_norm" : 0,
      "type" : "convolution",
      "n_groups" : 288,
      "pad_t" : 0,
      "stride_y" : 2,
      "has_biases" : 1,
      "C" : 288,
      "bottom" : "FeatureExtractor\/MobilenetV3\/expanded_conv_8\/expand\/hard_swish\/mul_1:0",
      "weights" : {
        "W_U8" : 249,
        "lut_to_float32" : 251
      },
      "Nx" : 5,
      "pad_mode" : 1,
      "pad_value" : 0,
      "Ny" : 5,
      "n_parallel" : 1
    },
    {
      "bottom" : "FeatureExtractor\/MobilenetV3\/expanded_conv_8\/depthwise\/BatchNorm\/FusedBatchNorm:0",
      "alpha" : 3,
      "operation" : 0,
      "weights" : {

      },
      "fused_relu" : 0,
      "debug_info" : "FeatureExtractor\/MobilenetV3\/expanded_conv_8\/depthwise\/hard_swish\/add:0",
      "top" : "FeatureExtractor\/MobilenetV3\/expanded_conv_8\/depthwise\/hard_swish\/add:0",
      "type" : "elementwise",
      "name" : "FeatureExtractor\/MobilenetV3\/expanded_conv_8\/depthwise\/hard_swish\/add:0",
      "beta" : 0
    },
    {
      "bottom" : "FeatureExtractor\/MobilenetV3\/expanded_conv_8\/depthwise\/hard_swish\/add:0",
      "weights" : {

      },
      "mode" : 0,
      "debug_info" : "relu_FeatureExtractor\/MobilenetV3\/expanded_conv_8\/depthwise\/hard_swish\/Relu6:0",
      "top" : "relu_FeatureExtractor\/MobilenetV3\/expanded_conv_8\/depthwise\/hard_swish\/Relu6:0",
      "type" : "activation",
      "name" : "relu_FeatureExtractor\/MobilenetV3\/expanded_conv_8\/depthwise\/hard_swish\/Relu6:0"
    },
    {
      "alpha" : -1,
      "bottom" : "relu_FeatureExtractor\/MobilenetV3\/expanded_conv_8\/depthwise\/hard_swish\/Relu6:0",
      "weights" : {

      },
      "mode" : 6,
      "debug_info" : "relu_FeatureExtractor\/MobilenetV3\/expanded_conv_8\/depthwise\/hard_swish\/Relu6:0_neg",
      "top" : "relu_FeatureExtractor\/MobilenetV3\/expanded_conv_8\/depthwise\/hard_swish\/Relu6:0_neg",
      "type" : "activation",
      "name" : "relu_FeatureExtractor\/MobilenetV3\/expanded_conv_8\/depthwise\/hard_swish\/Relu6:0_neg",
      "beta" : 0
    },
    {
      "bottom" : "relu_FeatureExtractor\/MobilenetV3\/expanded_conv_8\/depthwise\/hard_swish\/Relu6:0_neg",
      "alpha" : -6,
      "operation" : 25,
      "weights" : {

      },
      "fused_relu" : 0,
      "debug_info" : "relu_FeatureExtractor\/MobilenetV3\/expanded_conv_8\/depthwise\/hard_swish\/Relu6:0_clip",
      "top" : "relu_FeatureExtractor\/MobilenetV3\/expanded_conv_8\/depthwise\/hard_swish\/Relu6:0_clip",
      "type" : "elementwise",
      "name" : "relu_FeatureExtractor\/MobilenetV3\/expanded_conv_8\/depthwise\/hard_swish\/Relu6:0_clip",
      "beta" : 0
    },
    {
      "alpha" : -1,
      "bottom" : "relu_FeatureExtractor\/MobilenetV3\/expanded_conv_8\/depthwise\/hard_swish\/Relu6:0_clip",
      "weights" : {

      },
      "mode" : 6,
      "debug_info" : "FeatureExtractor\/MobilenetV3\/expanded_conv_8\/depthwise\/hard_swish\/Relu6:0",
      "top" : "FeatureExtractor\/MobilenetV3\/expanded_conv_8\/depthwise\/hard_swish\/Relu6:0",
      "type" : "activation",
      "name" : "FeatureExtractor\/MobilenetV3\/expanded_conv_8\/depthwise\/hard_swish\/Relu6:0",
      "beta" : 0
    },
    {
      "bottom" : "FeatureExtractor\/MobilenetV3\/expanded_conv_8\/depthwise\/BatchNorm\/FusedBatchNorm:0,FeatureExtractor\/MobilenetV3\/expanded_conv_8\/depthwise\/hard_swish\/Relu6:0",
      "alpha" : 1,
      "operation" : 1,
      "weights" : {

      },
      "fused_relu" : 0,
      "debug_info" : "FeatureExtractor\/MobilenetV3\/expanded_conv_8\/depthwise\/hard_swish\/mul:0",
      "top" : "FeatureExtractor\/MobilenetV3\/expanded_conv_8\/depthwise\/hard_swish\/mul:0",
      "type" : "elementwise",
      "name" : "FeatureExtractor\/MobilenetV3\/expanded_conv_8\/depthwise\/hard_swish\/mul:0",
      "beta" : 0
    },
    {
      "bottom" : "FeatureExtractor\/MobilenetV3\/expanded_conv_8\/depthwise\/hard_swish\/mul:0",
      "alpha" : 0.1666666716337204,
      "operation" : 1,
      "weights" : {

      },
      "fused_relu" : 0,
      "debug_info" : "FeatureExtractor\/MobilenetV3\/expanded_conv_8\/depthwise\/hard_swish\/mul_1:0",
      "top" : "FeatureExtractor\/MobilenetV3\/expanded_conv_8\/depthwise\/hard_swish\/mul_1:0",
      "type" : "elementwise",
      "name" : "FeatureExtractor\/MobilenetV3\/expanded_conv_8\/depthwise\/hard_swish\/mul_1:0",
      "beta" : 0
    },
    {
      "pad_r" : 0,
      "debug_info" : "FeatureExtractor\/MobilenetV3\/expanded_conv_8\/squeeze_excite\/Mean:0",
      "pad_fill_mode" : 0,
      "pad_b" : 0,
      "pad_l" : 0,
      "size_x" : 10,
      "is_global" : 1,
      "top" : "FeatureExtractor\/MobilenetV3\/expanded_conv_8\/squeeze_excite\/Mean:0",
      "top_shape_style" : 0,
      "stride_x" : 1,
      "avg_or_max" : 0,
      "average_count_exclude_padding" : 0,
      "type" : "pool",
      "name" : "FeatureExtractor\/MobilenetV3\/expanded_conv_8\/squeeze_excite\/Mean:0",
      "pad_t" : 0,
      "stride_y" : 1,
      "bottom" : "FeatureExtractor\/MobilenetV3\/expanded_conv_8\/depthwise\/hard_swish\/mul_1:0",
      "weights" : {

      },
      "pad_mode" : 2,
      "size_y" : 10,
      "pad_value" : 0
    },
    {
      "pad_r" : 0,
      "fused_relu" : 1,
      "fused_tanh" : 0,
      "debug_info" : "FeatureExtractor\/MobilenetV3\/expanded_conv_8\/squeeze_excite\/Conv\/Conv2D:0",
      "pad_fill_mode" : 0,
      "pad_b" : 0,
      "pad_l" : 0,
      "top" : "FeatureExtractor\/MobilenetV3\/expanded_conv_8\/squeeze_excite\/Conv\/Relu:0",
      "K" : 288,
      "blob_biases" : 253,
      "name" : "FeatureExtractor\/MobilenetV3\/expanded_conv_8\/squeeze_excite\/Conv\/Conv2D:0",
      "has_batch_norm" : 0,
      "type" : "convolution",
      "n_groups" : 1,
      "pad_t" : 0,
      "has_biases" : 1,
      "C" : 72,
      "bottom" : "FeatureExtractor\/MobilenetV3\/expanded_conv_8\/squeeze_excite\/Mean:0",
      "weights" : {
        "W_U8" : 255,
        "lut_to_float32" : 257
      },
      "Nx" : 1,
      "pad_mode" : 1,
      "pad_value" : 0,
      "Ny" : 1,
      "n_parallel" : 1
    },
    {
      "pad_r" : 0,
      "fused_relu" : 0,
      "fused_tanh" : 0,
      "debug_info" : "FeatureExtractor\/MobilenetV3\/expanded_conv_8\/squeeze_excite\/Conv_1\/Conv2D:0",
      "pad_fill_mode" : 0,
      "pad_b" : 0,
      "pad_l" : 0,
      "top" : "FeatureExtractor\/MobilenetV3\/expanded_conv_8\/squeeze_excite\/Conv_1\/BiasAdd:0",
      "K" : 72,
      "blob_biases" : 259,
      "name" : "FeatureExtractor\/MobilenetV3\/expanded_conv_8\/squeeze_excite\/Conv_1\/Conv2D:0",
      "has_batch_norm" : 0,
      "type" : "convolution",
      "n_groups" : 1,
      "pad_t" : 0,
      "has_biases" : 1,
      "C" : 288,
      "bottom" : "FeatureExtractor\/MobilenetV3\/expanded_conv_8\/squeeze_excite\/Conv\/Relu:0",
      "weights" : {
        "W_U8" : 261,
        "lut_to_float32" : 263
      },
      "Nx" : 1,
      "pad_mode" : 1,
      "pad_value" : 0,
      "Ny" : 1,
      "n_parallel" : 1
    },
    {
      "bottom" : "FeatureExtractor\/MobilenetV3\/expanded_conv_8\/squeeze_excite\/Conv_1\/BiasAdd:0",
      "alpha" : 3,
      "operation" : 0,
      "weights" : {

      },
      "fused_relu" : 0,
      "debug_info" : "FeatureExtractor\/MobilenetV3\/expanded_conv_8\/squeeze_excite\/Conv_1\/add:0",
      "top" : "FeatureExtractor\/MobilenetV3\/expanded_conv_8\/squeeze_excite\/Conv_1\/add:0",
      "type" : "elementwise",
      "name" : "FeatureExtractor\/MobilenetV3\/expanded_conv_8\/squeeze_excite\/Conv_1\/add:0",
      "beta" : 0
    },
    {
      "bottom" : "FeatureExtractor\/MobilenetV3\/expanded_conv_8\/squeeze_excite\/Conv_1\/add:0",
      "weights" : {

      },
      "mode" : 0,
      "debug_info" : "relu_FeatureExtractor\/MobilenetV3\/expanded_conv_8\/squeeze_excite\/Conv_1\/Relu6:0",
      "top" : "relu_FeatureExtractor\/MobilenetV3\/expanded_conv_8\/squeeze_excite\/Conv_1\/Relu6:0",
      "type" : "activation",
      "name" : "relu_FeatureExtractor\/MobilenetV3\/expanded_conv_8\/squeeze_excite\/Conv_1\/Relu6:0"
    },
    {
      "alpha" : -1,
      "bottom" : "relu_FeatureExtractor\/MobilenetV3\/expanded_conv_8\/squeeze_excite\/Conv_1\/Relu6:0",
      "weights" : {

      },
      "mode" : 6,
      "debug_info" : "relu_FeatureExtractor\/MobilenetV3\/expanded_conv_8\/squeeze_excite\/Conv_1\/Relu6:0_neg",
      "top" : "relu_FeatureExtractor\/MobilenetV3\/expanded_conv_8\/squeeze_excite\/Conv_1\/Relu6:0_neg",
      "type" : "activation",
      "name" : "relu_FeatureExtractor\/MobilenetV3\/expanded_conv_8\/squeeze_excite\/Conv_1\/Relu6:0_neg",
      "beta" : 0
    },
    {
      "bottom" : "relu_FeatureExtractor\/MobilenetV3\/expanded_conv_8\/squeeze_excite\/Conv_1\/Relu6:0_neg",
      "alpha" : -6,
      "operation" : 25,
      "weights" : {

      },
      "fused_relu" : 0,
      "debug_info" : "relu_FeatureExtractor\/MobilenetV3\/expanded_conv_8\/squeeze_excite\/Conv_1\/Relu6:0_clip",
      "top" : "relu_FeatureExtractor\/MobilenetV3\/expanded_conv_8\/squeeze_excite\/Conv_1\/Relu6:0_clip",
      "type" : "elementwise",
      "name" : "relu_FeatureExtractor\/MobilenetV3\/expanded_conv_8\/squeeze_excite\/Conv_1\/Relu6:0_clip",
      "beta" : 0
    },
    {
      "alpha" : -1,
      "bottom" : "relu_FeatureExtractor\/MobilenetV3\/expanded_conv_8\/squeeze_excite\/Conv_1\/Relu6:0_clip",
      "weights" : {

      },
      "mode" : 6,
      "debug_info" : "FeatureExtractor\/MobilenetV3\/expanded_conv_8\/squeeze_excite\/Conv_1\/Relu6:0",
      "top" : "FeatureExtractor\/MobilenetV3\/expanded_conv_8\/squeeze_excite\/Conv_1\/Relu6:0",
      "type" : "activation",
      "name" : "FeatureExtractor\/MobilenetV3\/expanded_conv_8\/squeeze_excite\/Conv_1\/Relu6:0",
      "beta" : 0
    },
    {
      "bottom" : "FeatureExtractor\/MobilenetV3\/expanded_conv_8\/squeeze_excite\/Conv_1\/Relu6:0",
      "alpha" : 0.16666999459266663,
      "operation" : 1,
      "weights" : {

      },
      "fused_relu" : 0,
      "debug_info" : "FeatureExtractor\/MobilenetV3\/expanded_conv_8\/squeeze_excite\/Conv_1\/mul:0",
      "top" : "FeatureExtractor\/MobilenetV3\/expanded_conv_8\/squeeze_excite\/Conv_1\/mul:0",
      "type" : "elementwise",
      "name" : "FeatureExtractor\/MobilenetV3\/expanded_conv_8\/squeeze_excite\/Conv_1\/mul:0",
      "beta" : 0
    },
    {
      "bottom" : "FeatureExtractor\/MobilenetV3\/expanded_conv_8\/depthwise\/hard_swish\/mul_1:0,FeatureExtractor\/MobilenetV3\/expanded_conv_8\/squeeze_excite\/Conv_1\/mul:0",
      "alpha" : 1,
      "operation" : 1,
      "weights" : {

      },
      "fused_relu" : 0,
      "debug_info" : "FeatureExtractor\/MobilenetV3\/expanded_conv_8\/squeeze_excite\/mul:0",
      "top" : "FeatureExtractor\/MobilenetV3\/expanded_conv_8\/squeeze_excite\/mul:0",
      "type" : "elementwise",
      "name" : "FeatureExtractor\/MobilenetV3\/expanded_conv_8\/squeeze_excite\/mul:0",
      "beta" : 0
    },
    {
      "pad_r" : 0,
      "fused_relu" : 0,
      "fused_tanh" : 0,
      "debug_info" : "FeatureExtractor\/MobilenetV3\/expanded_conv_8\/project\/Conv2D:0",
      "pad_fill_mode" : 0,
      "pad_b" : 0,
      "pad_l" : 0,
      "top" : "FeatureExtractor\/MobilenetV3\/expanded_conv_8\/project\/BatchNorm\/FusedBatchNorm:0",
      "K" : 288,
      "blob_biases" : 265,
      "name" : "FeatureExtractor\/MobilenetV3\/expanded_conv_8\/project\/Conv2D:0",
      "has_batch_norm" : 0,
      "type" : "convolution",
      "n_groups" : 1,
      "pad_t" : 0,
      "has_biases" : 1,
      "C" : 48,
      "bottom" : "FeatureExtractor\/MobilenetV3\/expanded_conv_8\/squeeze_excite\/mul:0",
      "weights" : {
        "W_U8" : 267,
        "lut_to_float32" : 269
      },
      "Nx" : 1,
      "pad_mode" : 1,
      "pad_value" : 0,
      "Ny" : 1,
      "n_parallel" : 1
    },
    {
      "pad_r" : 0,
      "fused_relu" : 0,
      "fused_tanh" : 0,
      "debug_info" : "FeatureExtractor\/MobilenetV3\/expanded_conv_9\/expand\/Conv2D:0",
      "pad_fill_mode" : 0,
      "pad_b" : 0,
      "pad_l" : 0,
      "top" : "FeatureExtractor\/MobilenetV3\/expanded_conv_9\/expand\/BatchNorm\/FusedBatchNorm:0",
      "K" : 48,
      "blob_biases" : 271,
      "name" : "FeatureExtractor\/MobilenetV3\/expanded_conv_9\/expand\/Conv2D:0",
      "has_batch_norm" : 0,
      "type" : "convolution",
      "n_groups" : 1,
      "pad_t" : 0,
      "has_biases" : 1,
      "C" : 288,
      "bottom" : "FeatureExtractor\/MobilenetV3\/expanded_conv_8\/project\/BatchNorm\/FusedBatchNorm:0",
      "weights" : {
        "W_U8" : 273,
        "lut_to_float32" : 275
      },
      "Nx" : 1,
      "pad_mode" : 1,
      "pad_value" : 0,
      "Ny" : 1,
      "n_parallel" : 1
    },
    {
      "bottom" : "FeatureExtractor\/MobilenetV3\/expanded_conv_9\/expand\/BatchNorm\/FusedBatchNorm:0",
      "alpha" : 3,
      "operation" : 0,
      "weights" : {

      },
      "fused_relu" : 0,
      "debug_info" : "FeatureExtractor\/MobilenetV3\/expanded_conv_9\/expand\/hard_swish\/add:0",
      "top" : "FeatureExtractor\/MobilenetV3\/expanded_conv_9\/expand\/hard_swish\/add:0",
      "type" : "elementwise",
      "name" : "FeatureExtractor\/MobilenetV3\/expanded_conv_9\/expand\/hard_swish\/add:0",
      "beta" : 0
    },
    {
      "bottom" : "FeatureExtractor\/MobilenetV3\/expanded_conv_9\/expand\/hard_swish\/add:0",
      "weights" : {

      },
      "mode" : 0,
      "debug_info" : "relu_FeatureExtractor\/MobilenetV3\/expanded_conv_9\/expand\/hard_swish\/Relu6:0",
      "top" : "relu_FeatureExtractor\/MobilenetV3\/expanded_conv_9\/expand\/hard_swish\/Relu6:0",
      "type" : "activation",
      "name" : "relu_FeatureExtractor\/MobilenetV3\/expanded_conv_9\/expand\/hard_swish\/Relu6:0"
    },
    {
      "alpha" : -1,
      "bottom" : "relu_FeatureExtractor\/MobilenetV3\/expanded_conv_9\/expand\/hard_swish\/Relu6:0",
      "weights" : {

      },
      "mode" : 6,
      "debug_info" : "relu_FeatureExtractor\/MobilenetV3\/expanded_conv_9\/expand\/hard_swish\/Relu6:0_neg",
      "top" : "relu_FeatureExtractor\/MobilenetV3\/expanded_conv_9\/expand\/hard_swish\/Relu6:0_neg",
      "type" : "activation",
      "name" : "relu_FeatureExtractor\/MobilenetV3\/expanded_conv_9\/expand\/hard_swish\/Relu6:0_neg",
      "beta" : 0
    },
    {
      "bottom" : "relu_FeatureExtractor\/MobilenetV3\/expanded_conv_9\/expand\/hard_swish\/Relu6:0_neg",
      "alpha" : -6,
      "operation" : 25,
      "weights" : {

      },
      "fused_relu" : 0,
      "debug_info" : "relu_FeatureExtractor\/MobilenetV3\/expanded_conv_9\/expand\/hard_swish\/Relu6:0_clip",
      "top" : "relu_FeatureExtractor\/MobilenetV3\/expanded_conv_9\/expand\/hard_swish\/Relu6:0_clip",
      "type" : "elementwise",
      "name" : "relu_FeatureExtractor\/MobilenetV3\/expanded_conv_9\/expand\/hard_swish\/Relu6:0_clip",
      "beta" : 0
    },
    {
      "alpha" : -1,
      "bottom" : "relu_FeatureExtractor\/MobilenetV3\/expanded_conv_9\/expand\/hard_swish\/Relu6:0_clip",
      "weights" : {

      },
      "mode" : 6,
      "debug_info" : "FeatureExtractor\/MobilenetV3\/expanded_conv_9\/expand\/hard_swish\/Relu6:0",
      "top" : "FeatureExtractor\/MobilenetV3\/expanded_conv_9\/expand\/hard_swish\/Relu6:0",
      "type" : "activation",
      "name" : "FeatureExtractor\/MobilenetV3\/expanded_conv_9\/expand\/hard_swish\/Relu6:0",
      "beta" : 0
    },
    {
      "bottom" : "FeatureExtractor\/MobilenetV3\/expanded_conv_9\/expand\/BatchNorm\/FusedBatchNorm:0,FeatureExtractor\/MobilenetV3\/expanded_conv_9\/expand\/hard_swish\/Relu6:0",
      "alpha" : 1,
      "operation" : 1,
      "weights" : {

      },
      "fused_relu" : 0,
      "debug_info" : "FeatureExtractor\/MobilenetV3\/expanded_conv_9\/expand\/hard_swish\/mul:0",
      "top" : "FeatureExtractor\/MobilenetV3\/expanded_conv_9\/expand\/hard_swish\/mul:0",
      "type" : "elementwise",
      "name" : "FeatureExtractor\/MobilenetV3\/expanded_conv_9\/expand\/hard_swish\/mul:0",
      "beta" : 0
    },
    {
      "bottom" : "FeatureExtractor\/MobilenetV3\/expanded_conv_9\/expand\/hard_swish\/mul:0",
      "alpha" : 0.1666666716337204,
      "operation" : 1,
      "weights" : {

      },
      "fused_relu" : 0,
      "debug_info" : "FeatureExtractor\/MobilenetV3\/expanded_conv_9\/expand\/hard_swish\/mul_1:0",
      "top" : "FeatureExtractor\/MobilenetV3\/expanded_conv_9\/expand\/hard_swish\/mul_1:0",
      "type" : "elementwise",
      "name" : "FeatureExtractor\/MobilenetV3\/expanded_conv_9\/expand\/hard_swish\/mul_1:0",
      "beta" : 0
    },
    {
      "pad_r" : 0,
      "fused_relu" : 0,
      "fused_tanh" : 0,
      "debug_info" : "FeatureExtractor\/MobilenetV3\/expanded_conv_9\/depthwise\/depthwise:0",
      "pad_fill_mode" : 0,
      "pad_b" : 0,
      "pad_l" : 0,
      "top" : "FeatureExtractor\/MobilenetV3\/expanded_conv_9\/depthwise\/BatchNorm\/FusedBatchNorm:0",
      "K" : 288,
      "blob_biases" : 277,
      "name" : "FeatureExtractor\/MobilenetV3\/expanded_conv_9\/depthwise\/depthwise:0",
      "has_batch_norm" : 0,
      "type" : "convolution",
      "n_groups" : 288,
      "pad_t" : 0,
      "has_biases" : 1,
      "C" : 288,
      "bottom" : "FeatureExtractor\/MobilenetV3\/expanded_conv_9\/expand\/hard_swish\/mul_1:0",
      "weights" : {
        "W_U8" : 279,
        "lut_to_float32" : 281
      },
      "Nx" : 5,
      "pad_mode" : 1,
      "pad_value" : 0,
      "Ny" : 5,
      "n_parallel" : 1
    },
    {
      "bottom" : "FeatureExtractor\/MobilenetV3\/expanded_conv_9\/depthwise\/BatchNorm\/FusedBatchNorm:0",
      "alpha" : 3,
      "operation" : 0,
      "weights" : {

      },
      "fused_relu" : 0,
      "debug_info" : "FeatureExtractor\/MobilenetV3\/expanded_conv_9\/depthwise\/hard_swish\/add:0",
      "top" : "FeatureExtractor\/MobilenetV3\/expanded_conv_9\/depthwise\/hard_swish\/add:0",
      "type" : "elementwise",
      "name" : "FeatureExtractor\/MobilenetV3\/expanded_conv_9\/depthwise\/hard_swish\/add:0",
      "beta" : 0
    },
    {
      "bottom" : "FeatureExtractor\/MobilenetV3\/expanded_conv_9\/depthwise\/hard_swish\/add:0",
      "weights" : {

      },
      "mode" : 0,
      "debug_info" : "relu_FeatureExtractor\/MobilenetV3\/expanded_conv_9\/depthwise\/hard_swish\/Relu6:0",
      "top" : "relu_FeatureExtractor\/MobilenetV3\/expanded_conv_9\/depthwise\/hard_swish\/Relu6:0",
      "type" : "activation",
      "name" : "relu_FeatureExtractor\/MobilenetV3\/expanded_conv_9\/depthwise\/hard_swish\/Relu6:0"
    },
    {
      "alpha" : -1,
      "bottom" : "relu_FeatureExtractor\/MobilenetV3\/expanded_conv_9\/depthwise\/hard_swish\/Relu6:0",
      "weights" : {

      },
      "mode" : 6,
      "debug_info" : "relu_FeatureExtractor\/MobilenetV3\/expanded_conv_9\/depthwise\/hard_swish\/Relu6:0_neg",
      "top" : "relu_FeatureExtractor\/MobilenetV3\/expanded_conv_9\/depthwise\/hard_swish\/Relu6:0_neg",
      "type" : "activation",
      "name" : "relu_FeatureExtractor\/MobilenetV3\/expanded_conv_9\/depthwise\/hard_swish\/Relu6:0_neg",
      "beta" : 0
    },
    {
      "bottom" : "relu_FeatureExtractor\/MobilenetV3\/expanded_conv_9\/depthwise\/hard_swish\/Relu6:0_neg",
      "alpha" : -6,
      "operation" : 25,
      "weights" : {

      },
      "fused_relu" : 0,
      "debug_info" : "relu_FeatureExtractor\/MobilenetV3\/expanded_conv_9\/depthwise\/hard_swish\/Relu6:0_clip",
      "top" : "relu_FeatureExtractor\/MobilenetV3\/expanded_conv_9\/depthwise\/hard_swish\/Relu6:0_clip",
      "type" : "elementwise",
      "name" : "relu_FeatureExtractor\/MobilenetV3\/expanded_conv_9\/depthwise\/hard_swish\/Relu6:0_clip",
      "beta" : 0
    },
    {
      "alpha" : -1,
      "bottom" : "relu_FeatureExtractor\/MobilenetV3\/expanded_conv_9\/depthwise\/hard_swish\/Relu6:0_clip",
      "weights" : {

      },
      "mode" : 6,
      "debug_info" : "FeatureExtractor\/MobilenetV3\/expanded_conv_9\/depthwise\/hard_swish\/Relu6:0",
      "top" : "FeatureExtractor\/MobilenetV3\/expanded_conv_9\/depthwise\/hard_swish\/Relu6:0",
      "type" : "activation",
      "name" : "FeatureExtractor\/MobilenetV3\/expanded_conv_9\/depthwise\/hard_swish\/Relu6:0",
      "beta" : 0
    },
    {
      "bottom" : "FeatureExtractor\/MobilenetV3\/expanded_conv_9\/depthwise\/BatchNorm\/FusedBatchNorm:0,FeatureExtractor\/MobilenetV3\/expanded_conv_9\/depthwise\/hard_swish\/Relu6:0",
      "alpha" : 1,
      "operation" : 1,
      "weights" : {

      },
      "fused_relu" : 0,
      "debug_info" : "FeatureExtractor\/MobilenetV3\/expanded_conv_9\/depthwise\/hard_swish\/mul:0",
      "top" : "FeatureExtractor\/MobilenetV3\/expanded_conv_9\/depthwise\/hard_swish\/mul:0",
      "type" : "elementwise",
      "name" : "FeatureExtractor\/MobilenetV3\/expanded_conv_9\/depthwise\/hard_swish\/mul:0",
      "beta" : 0
    },
    {
      "bottom" : "FeatureExtractor\/MobilenetV3\/expanded_conv_9\/depthwise\/hard_swish\/mul:0",
      "alpha" : 0.1666666716337204,
      "operation" : 1,
      "weights" : {

      },
      "fused_relu" : 0,
      "debug_info" : "FeatureExtractor\/MobilenetV3\/expanded_conv_9\/depthwise\/hard_swish\/mul_1:0",
      "top" : "FeatureExtractor\/MobilenetV3\/expanded_conv_9\/depthwise\/hard_swish\/mul_1:0",
      "type" : "elementwise",
      "name" : "FeatureExtractor\/MobilenetV3\/expanded_conv_9\/depthwise\/hard_swish\/mul_1:0",
      "beta" : 0
    },
    {
      "pad_r" : 0,
      "debug_info" : "FeatureExtractor\/MobilenetV3\/expanded_conv_9\/squeeze_excite\/Mean:0",
      "pad_fill_mode" : 0,
      "pad_b" : 0,
      "pad_l" : 0,
      "size_x" : 10,
      "is_global" : 1,
      "top" : "FeatureExtractor\/MobilenetV3\/expanded_conv_9\/squeeze_excite\/Mean:0",
      "top_shape_style" : 0,
      "stride_x" : 1,
      "avg_or_max" : 0,
      "average_count_exclude_padding" : 0,
      "type" : "pool",
      "name" : "FeatureExtractor\/MobilenetV3\/expanded_conv_9\/squeeze_excite\/Mean:0",
      "pad_t" : 0,
      "stride_y" : 1,
      "bottom" : "FeatureExtractor\/MobilenetV3\/expanded_conv_9\/depthwise\/hard_swish\/mul_1:0",
      "weights" : {

      },
      "pad_mode" : 2,
      "size_y" : 10,
      "pad_value" : 0
    },
    {
      "pad_r" : 0,
      "fused_relu" : 1,
      "fused_tanh" : 0,
      "debug_info" : "FeatureExtractor\/MobilenetV3\/expanded_conv_9\/squeeze_excite\/Conv\/Conv2D:0",
      "pad_fill_mode" : 0,
      "pad_b" : 0,
      "pad_l" : 0,
      "top" : "FeatureExtractor\/MobilenetV3\/expanded_conv_9\/squeeze_excite\/Conv\/Relu:0",
      "K" : 288,
      "blob_biases" : 283,
      "name" : "FeatureExtractor\/MobilenetV3\/expanded_conv_9\/squeeze_excite\/Conv\/Conv2D:0",
      "has_batch_norm" : 0,
      "type" : "convolution",
      "n_groups" : 1,
      "pad_t" : 0,
      "has_biases" : 1,
      "C" : 72,
      "bottom" : "FeatureExtractor\/MobilenetV3\/expanded_conv_9\/squeeze_excite\/Mean:0",
      "weights" : {
        "W_U8" : 285,
        "lut_to_float32" : 287
      },
      "Nx" : 1,
      "pad_mode" : 1,
      "pad_value" : 0,
      "Ny" : 1,
      "n_parallel" : 1
    },
    {
      "pad_r" : 0,
      "fused_relu" : 0,
      "fused_tanh" : 0,
      "debug_info" : "FeatureExtractor\/MobilenetV3\/expanded_conv_9\/squeeze_excite\/Conv_1\/Conv2D:0",
      "pad_fill_mode" : 0,
      "pad_b" : 0,
      "pad_l" : 0,
      "top" : "FeatureExtractor\/MobilenetV3\/expanded_conv_9\/squeeze_excite\/Conv_1\/BiasAdd:0",
      "K" : 72,
      "blob_biases" : 289,
      "name" : "FeatureExtractor\/MobilenetV3\/expanded_conv_9\/squeeze_excite\/Conv_1\/Conv2D:0",
      "has_batch_norm" : 0,
      "type" : "convolution",
      "n_groups" : 1,
      "pad_t" : 0,
      "has_biases" : 1,
      "C" : 288,
      "bottom" : "FeatureExtractor\/MobilenetV3\/expanded_conv_9\/squeeze_excite\/Conv\/Relu:0",
      "weights" : {
        "W_U8" : 291,
        "lut_to_float32" : 293
      },
      "Nx" : 1,
      "pad_mode" : 1,
      "pad_value" : 0,
      "Ny" : 1,
      "n_parallel" : 1
    },
    {
      "bottom" : "FeatureExtractor\/MobilenetV3\/expanded_conv_9\/squeeze_excite\/Conv_1\/BiasAdd:0",
      "alpha" : 3,
      "operation" : 0,
      "weights" : {

      },
      "fused_relu" : 0,
      "debug_info" : "FeatureExtractor\/MobilenetV3\/expanded_conv_9\/squeeze_excite\/Conv_1\/add:0",
      "top" : "FeatureExtractor\/MobilenetV3\/expanded_conv_9\/squeeze_excite\/Conv_1\/add:0",
      "type" : "elementwise",
      "name" : "FeatureExtractor\/MobilenetV3\/expanded_conv_9\/squeeze_excite\/Conv_1\/add:0",
      "beta" : 0
    },
    {
      "bottom" : "FeatureExtractor\/MobilenetV3\/expanded_conv_9\/squeeze_excite\/Conv_1\/add:0",
      "weights" : {

      },
      "mode" : 0,
      "debug_info" : "relu_FeatureExtractor\/MobilenetV3\/expanded_conv_9\/squeeze_excite\/Conv_1\/Relu6:0",
      "top" : "relu_FeatureExtractor\/MobilenetV3\/expanded_conv_9\/squeeze_excite\/Conv_1\/Relu6:0",
      "type" : "activation",
      "name" : "relu_FeatureExtractor\/MobilenetV3\/expanded_conv_9\/squeeze_excite\/Conv_1\/Relu6:0"
    },
    {
      "alpha" : -1,
      "bottom" : "relu_FeatureExtractor\/MobilenetV3\/expanded_conv_9\/squeeze_excite\/Conv_1\/Relu6:0",
      "weights" : {

      },
      "mode" : 6,
      "debug_info" : "relu_FeatureExtractor\/MobilenetV3\/expanded_conv_9\/squeeze_excite\/Conv_1\/Relu6:0_neg",
      "top" : "relu_FeatureExtractor\/MobilenetV3\/expanded_conv_9\/squeeze_excite\/Conv_1\/Relu6:0_neg",
      "type" : "activation",
      "name" : "relu_FeatureExtractor\/MobilenetV3\/expanded_conv_9\/squeeze_excite\/Conv_1\/Relu6:0_neg",
      "beta" : 0
    },
    {
      "bottom" : "relu_FeatureExtractor\/MobilenetV3\/expanded_conv_9\/squeeze_excite\/Conv_1\/Relu6:0_neg",
      "alpha" : -6,
      "operation" : 25,
      "weights" : {

      },
      "fused_relu" : 0,
      "debug_info" : "relu_FeatureExtractor\/MobilenetV3\/expanded_conv_9\/squeeze_excite\/Conv_1\/Relu6:0_clip",
      "top" : "relu_FeatureExtractor\/MobilenetV3\/expanded_conv_9\/squeeze_excite\/Conv_1\/Relu6:0_clip",
      "type" : "elementwise",
      "name" : "relu_FeatureExtractor\/MobilenetV3\/expanded_conv_9\/squeeze_excite\/Conv_1\/Relu6:0_clip",
      "beta" : 0
    },
    {
      "alpha" : -1,
      "bottom" : "relu_FeatureExtractor\/MobilenetV3\/expanded_conv_9\/squeeze_excite\/Conv_1\/Relu6:0_clip",
      "weights" : {

      },
      "mode" : 6,
      "debug_info" : "FeatureExtractor\/MobilenetV3\/expanded_conv_9\/squeeze_excite\/Conv_1\/Relu6:0",
      "top" : "FeatureExtractor\/MobilenetV3\/expanded_conv_9\/squeeze_excite\/Conv_1\/Relu6:0",
      "type" : "activation",
      "name" : "FeatureExtractor\/MobilenetV3\/expanded_conv_9\/squeeze_excite\/Conv_1\/Relu6:0",
      "beta" : 0
    },
    {
      "bottom" : "FeatureExtractor\/MobilenetV3\/expanded_conv_9\/squeeze_excite\/Conv_1\/Relu6:0",
      "alpha" : 0.16666999459266663,
      "operation" : 1,
      "weights" : {

      },
      "fused_relu" : 0,
      "debug_info" : "FeatureExtractor\/MobilenetV3\/expanded_conv_9\/squeeze_excite\/Conv_1\/mul:0",
      "top" : "FeatureExtractor\/MobilenetV3\/expanded_conv_9\/squeeze_excite\/Conv_1\/mul:0",
      "type" : "elementwise",
      "name" : "FeatureExtractor\/MobilenetV3\/expanded_conv_9\/squeeze_excite\/Conv_1\/mul:0",
      "beta" : 0
    },
    {
      "bottom" : "FeatureExtractor\/MobilenetV3\/expanded_conv_9\/depthwise\/hard_swish\/mul_1:0,FeatureExtractor\/MobilenetV3\/expanded_conv_9\/squeeze_excite\/Conv_1\/mul:0",
      "alpha" : 1,
      "operation" : 1,
      "weights" : {

      },
      "fused_relu" : 0,
      "debug_info" : "FeatureExtractor\/MobilenetV3\/expanded_conv_9\/squeeze_excite\/mul:0",
      "top" : "FeatureExtractor\/MobilenetV3\/expanded_conv_9\/squeeze_excite\/mul:0",
      "type" : "elementwise",
      "name" : "FeatureExtractor\/MobilenetV3\/expanded_conv_9\/squeeze_excite\/mul:0",
      "beta" : 0
    },
    {
      "pad_r" : 0,
      "fused_relu" : 0,
      "fused_tanh" : 0,
      "debug_info" : "FeatureExtractor\/MobilenetV3\/expanded_conv_9\/project\/Conv2D:0",
      "pad_fill_mode" : 0,
      "pad_b" : 0,
      "pad_l" : 0,
      "top" : "FeatureExtractor\/MobilenetV3\/expanded_conv_9\/project\/BatchNorm\/FusedBatchNorm:0",
      "K" : 288,
      "blob_biases" : 295,
      "name" : "FeatureExtractor\/MobilenetV3\/expanded_conv_9\/project\/Conv2D:0",
      "has_batch_norm" : 0,
      "type" : "convolution",
      "n_groups" : 1,
      "pad_t" : 0,
      "has_biases" : 1,
      "C" : 48,
      "bottom" : "FeatureExtractor\/MobilenetV3\/expanded_conv_9\/squeeze_excite\/mul:0",
      "weights" : {
        "W_U8" : 297,
        "lut_to_float32" : 299
      },
      "Nx" : 1,
      "pad_mode" : 1,
      "pad_value" : 0,
      "Ny" : 1,
      "n_parallel" : 1
    },
    {
      "bottom" : "FeatureExtractor\/MobilenetV3\/expanded_conv_9\/project\/BatchNorm\/FusedBatchNorm:0,FeatureExtractor\/MobilenetV3\/expanded_conv_8\/project\/BatchNorm\/FusedBatchNorm:0",
      "alpha" : 1,
      "operation" : 0,
      "weights" : {

      },
      "fused_relu" : 0,
      "debug_info" : "FeatureExtractor\/MobilenetV3\/expanded_conv_9\/add:0",
      "top" : "FeatureExtractor\/MobilenetV3\/expanded_conv_9\/add:0",
      "type" : "elementwise",
      "name" : "FeatureExtractor\/MobilenetV3\/expanded_conv_9\/add:0",
      "beta" : 0
    },
    {
      "pad_r" : 0,
      "fused_relu" : 0,
      "fused_tanh" : 0,
      "debug_info" : "FeatureExtractor\/MobilenetV3\/expanded_conv_10\/expand\/Conv2D:0",
      "pad_fill_mode" : 0,
      "pad_b" : 0,
      "pad_l" : 0,
      "top" : "FeatureExtractor\/MobilenetV3\/expanded_conv_10\/expand\/BatchNorm\/FusedBatchNorm:0",
      "K" : 48,
      "blob_biases" : 301,
      "name" : "FeatureExtractor\/MobilenetV3\/expanded_conv_10\/expand\/Conv2D:0",
      "has_batch_norm" : 0,
      "type" : "convolution",
      "n_groups" : 1,
      "pad_t" : 0,
      "has_biases" : 1,
      "C" : 288,
      "bottom" : "FeatureExtractor\/MobilenetV3\/expanded_conv_9\/add:0",
      "weights" : {
        "W_U8" : 303,
        "lut_to_float32" : 305
      },
      "Nx" : 1,
      "pad_mode" : 1,
      "pad_value" : 0,
      "Ny" : 1,
      "n_parallel" : 1
    },
    {
      "bottom" : "FeatureExtractor\/MobilenetV3\/expanded_conv_10\/expand\/BatchNorm\/FusedBatchNorm:0",
      "alpha" : 3,
      "operation" : 0,
      "weights" : {

      },
      "fused_relu" : 0,
      "debug_info" : "FeatureExtractor\/MobilenetV3\/expanded_conv_10\/expand\/hard_swish\/add:0",
      "top" : "FeatureExtractor\/MobilenetV3\/expanded_conv_10\/expand\/hard_swish\/add:0",
      "type" : "elementwise",
      "name" : "FeatureExtractor\/MobilenetV3\/expanded_conv_10\/expand\/hard_swish\/add:0",
      "beta" : 0
    },
    {
      "bottom" : "FeatureExtractor\/MobilenetV3\/expanded_conv_10\/expand\/hard_swish\/add:0",
      "weights" : {

      },
      "mode" : 0,
      "debug_info" : "relu_FeatureExtractor\/MobilenetV3\/expanded_conv_10\/expand\/hard_swish\/Relu6:0",
      "top" : "relu_FeatureExtractor\/MobilenetV3\/expanded_conv_10\/expand\/hard_swish\/Relu6:0",
      "type" : "activation",
      "name" : "relu_FeatureExtractor\/MobilenetV3\/expanded_conv_10\/expand\/hard_swish\/Relu6:0"
    },
    {
      "alpha" : -1,
      "bottom" : "relu_FeatureExtractor\/MobilenetV3\/expanded_conv_10\/expand\/hard_swish\/Relu6:0",
      "weights" : {

      },
      "mode" : 6,
      "debug_info" : "relu_FeatureExtractor\/MobilenetV3\/expanded_conv_10\/expand\/hard_swish\/Relu6:0_neg",
      "top" : "relu_FeatureExtractor\/MobilenetV3\/expanded_conv_10\/expand\/hard_swish\/Relu6:0_neg",
      "type" : "activation",
      "name" : "relu_FeatureExtractor\/MobilenetV3\/expanded_conv_10\/expand\/hard_swish\/Relu6:0_neg",
      "beta" : 0
    },
    {
      "bottom" : "relu_FeatureExtractor\/MobilenetV3\/expanded_conv_10\/expand\/hard_swish\/Relu6:0_neg",
      "alpha" : -6,
      "operation" : 25,
      "weights" : {

      },
      "fused_relu" : 0,
      "debug_info" : "relu_FeatureExtractor\/MobilenetV3\/expanded_conv_10\/expand\/hard_swish\/Relu6:0_clip",
      "top" : "relu_FeatureExtractor\/MobilenetV3\/expanded_conv_10\/expand\/hard_swish\/Relu6:0_clip",
      "type" : "elementwise",
      "name" : "relu_FeatureExtractor\/MobilenetV3\/expanded_conv_10\/expand\/hard_swish\/Relu6:0_clip",
      "beta" : 0
    },
    {
      "alpha" : -1,
      "bottom" : "relu_FeatureExtractor\/MobilenetV3\/expanded_conv_10\/expand\/hard_swish\/Relu6:0_clip",
      "weights" : {

      },
      "mode" : 6,
      "debug_info" : "FeatureExtractor\/MobilenetV3\/expanded_conv_10\/expand\/hard_swish\/Relu6:0",
      "top" : "FeatureExtractor\/MobilenetV3\/expanded_conv_10\/expand\/hard_swish\/Relu6:0",
      "type" : "activation",
      "name" : "FeatureExtractor\/MobilenetV3\/expanded_conv_10\/expand\/hard_swish\/Relu6:0",
      "beta" : 0
    },
    {
      "bottom" : "FeatureExtractor\/MobilenetV3\/expanded_conv_10\/expand\/BatchNorm\/FusedBatchNorm:0,FeatureExtractor\/MobilenetV3\/expanded_conv_10\/expand\/hard_swish\/Relu6:0",
      "alpha" : 1,
      "operation" : 1,
      "weights" : {

      },
      "fused_relu" : 0,
      "debug_info" : "FeatureExtractor\/MobilenetV3\/expanded_conv_10\/expand\/hard_swish\/mul:0",
      "top" : "FeatureExtractor\/MobilenetV3\/expanded_conv_10\/expand\/hard_swish\/mul:0",
      "type" : "elementwise",
      "name" : "FeatureExtractor\/MobilenetV3\/expanded_conv_10\/expand\/hard_swish\/mul:0",
      "beta" : 0
    },
    {
      "bottom" : "FeatureExtractor\/MobilenetV3\/expanded_conv_10\/expand\/hard_swish\/mul:0",
      "alpha" : 0.1666666716337204,
      "operation" : 1,
      "weights" : {

      },
      "fused_relu" : 0,
      "debug_info" : "FeatureExtractor\/MobilenetV3\/expanded_conv_10\/expand\/hard_swish\/mul_1:0",
…
    },
    {
      "name" : "BoxPredictor_2\/Reshape:0",
      "weights" : {

      },
      "dst_w" : 1,
      "version" : 1,
      "dst_n" : 0,
      "type" : "reshape",
      "dst_h" : 150,
      "mode" : 1,
      "bottom" : "BoxPredictor_2\/BoxEncodingPredictor\/BiasAdd:0",
      "debug_info" : "BoxPredictor_2\/Reshape:0",
      "dst_seq" : 1,
      "dst_k" : 4,
      "top" : "BoxPredictor_2\/Reshape:0"
    },
    {
      "pad_r" : 0,
      "fused_relu" : 1,
      "fused_tanh" : 0,
      "debug_info" : "FeatureExtractor\/MobilenetV3\/layer_13_1_Conv2d_3_1x1_128\/Conv2D:0",
      "pad_fill_mode" : 0,
      "pad_b" : 0,
      "pad_l" : 0,
      "top" : "relu_FeatureExtractor\/MobilenetV3\/layer_13_1_Conv2d_3_1x1_128\/Relu6:0",
      "K" : 512,
      "blob_biases" : 403,
      "name" : "FeatureExtractor\/MobilenetV3\/layer_13_1_Conv2d_3_1x1_128\/Conv2D:0",
      "has_batch_norm" : 0,
      "type" : "convolution",
      "n_groups" : 1,
      "pad_t" : 0,
      "has_biases" : 1,
      "C" : 128,
      "bottom" : "FeatureExtractor\/MobilenetV3\/layer_13_2_Conv2d_2_3x3_s2_512\/Relu6:0",
      "weights" : {
        "W_U8" : 405,
        "lut_to_float32" : 407
      },
      "Nx" : 1,
      "pad_mode" : 1,
      "pad_value" : 0,
      "Ny" : 1,
      "n_parallel" : 1
    },
    {
      "alpha" : -1,
      "bottom" : "relu_FeatureExtractor\/MobilenetV3\/layer_13_1_Conv2d_3_1x1_128\/Relu6:0",
      "weights" : {

      },
      "mode" : 6,
      "debug_info" : "relu_FeatureExtractor\/MobilenetV3\/layer_13_1_Conv2d_3_1x1_128\/Relu6:0_neg",
      "top" : "relu_FeatureExtractor\/MobilenetV3\/layer_13_1_Conv2d_3_1x1_128\/Relu6:0_neg",
      "type" : "activation",
      "name" : "relu_FeatureExtractor\/MobilenetV3\/layer_13_1_Conv2d_3_1x1_128\/Relu6:0_neg",
      "beta" : 0
    },
    {
      "bottom" : "relu_FeatureExtractor\/MobilenetV3\/layer_13_1_Conv2d_3_1x1_128\/Relu6:0_neg",
      "alpha" : -6,
      "operation" : 25,
      "weights" : {

      },
      "fused_relu" : 0,
      "debug_info" : "relu_FeatureExtractor\/MobilenetV3\/layer_13_1_Conv2d_3_1x1_128\/Relu6:0_clip",
      "top" : "relu_FeatureExtractor\/MobilenetV3\/layer_13_1_Conv2d_3_1x1_128\/Relu6:0_clip",
      "type" : "elementwise",
      "name" : "relu_FeatureExtractor\/MobilenetV3\/layer_13_1_Conv2d_3_1x1_128\/Relu6:0_clip",
      "beta" : 0
    },
    {
      "alpha" : -1,
      "bottom" : "relu_FeatureExtractor\/MobilenetV3\/layer_13_1_Conv2d_3_1x1_128\/Relu6:0_clip",
      "weights" : {

      },
      "mode" : 6,
      "debug_info" : "FeatureExtractor\/MobilenetV3\/layer_13_1_Conv2d_3_1x1_128\/Relu6:0",
      "top" : "FeatureExtractor\/MobilenetV3\/layer_13_1_Conv2d_3_1x1_128\/Relu6:0",
      "type" : "activation",
      "name" : "FeatureExtractor\/MobilenetV3\/layer_13_1_Conv2d_3_1x1_128\/Relu6:0",
      "beta" : 0
    },
    {
      "pad_r" : 0,
      "fused_relu" : 1,
      "fused_tanh" : 0,
      "debug_info" : "FeatureExtractor\/MobilenetV3\/layer_13_2_Conv2d_3_3x3_s2_256_depthwise\/depthwise:0",
      "pad_fill_mode" : 0,
      "pad_b" : 0,
      "pad_l" : 0,
      "top" : "relu_FeatureExtractor\/MobilenetV3\/layer_13_2_Conv2d_3_3x3_s2_256_depthwise\/Relu6:0",
      "K" : 128,
      "blob_biases" : 409,
      "stride_x" : 2,
      "name" : "FeatureExtractor\/MobilenetV3\/layer_13_2_Conv2d_3_3x3_s2_256_depthwise\/depthwise:0",
      "has_batch_norm" : 0,
      "type" : "convolution",
      "n_groups" : 128,
      "pad_t" : 0,
      "stride_y" : 2,
      "has_biases" : 1,
      "C" : 128,
      "bottom" : "FeatureExtractor\/MobilenetV3\/layer_13_1_Conv2d_3_1x1_128\/Relu6:0",
      "weights" : {
        "W_U8" : 411,
        "lut_to_float32" : 413
      },
      "Nx" : 3,
      "pad_mode" : 1,
      "pad_value" : 0,
      "Ny" : 3,
      "n_parallel" : 1
    },
    {
      "alpha" : -1,
      "bottom" : "relu_FeatureExtractor\/MobilenetV3\/layer_13_2_Conv2d_3_3x3_s2_256_depthwise\/Relu6:0",
      "weights" : {

      },
      "mode" : 6,
      "debug_info" : "relu_FeatureExtractor\/MobilenetV3\/layer_13_2_Conv2d_3_3x3_s2_256_depthwise\/Relu6:0_neg",
      "top" : "relu_FeatureExtractor\/MobilenetV3\/layer_13_2_Conv2d_3_3x3_s2_256_depthwise\/Relu6:0_neg",
      "type" : "activation",
      "name" : "relu_FeatureExtractor\/MobilenetV3\/layer_13_2_Conv2d_3_3x3_s2_256_depthwise\/Relu6:0_neg",
      "beta" : 0
    },
    {
      "bottom" : "relu_FeatureExtractor\/MobilenetV3\/layer_13_2_Conv2d_3_3x3_s2_256_depthwise\/Relu6:0_neg",
      "alpha" : -6,
      "operation" : 25,
      "weights" : {

      },
      "fused_relu" : 0,
      "debug_info" : "relu_FeatureExtractor\/MobilenetV3\/layer_13_2_Conv2d_3_3x3_s2_256_depthwise\/Relu6:0_clip",
      "top" : "relu_FeatureExtractor\/MobilenetV3\/layer_13_2_Conv2d_3_3x3_s2_256_depthwise\/Relu6:0_clip",
      "type" : "elementwise",
      "name" : "relu_FeatureExtractor\/MobilenetV3\/layer_13_2_Conv2d_3_3x3_s2_256_depthwise\/Relu6:0_clip",
      "beta" : 0
    },
    {
      "alpha" : -1,
      "bottom" : "relu_FeatureExtractor\/MobilenetV3\/layer_13_2_Conv2d_3_3x3_s2_256_depthwise\/Relu6:0_clip",
      "weights" : {

      },
      "mode" : 6,
      "debug_info" : "FeatureExtractor\/MobilenetV3\/layer_13_2_Conv2d_3_3x3_s2_256_depthwise\/Relu6:0",
      "top" : "FeatureExtractor\/MobilenetV3\/layer_13_2_Conv2d_3_3x3_s2_256_depthwise\/Relu6:0",
      "type" : "activation",
      "name" : "FeatureExtractor\/MobilenetV3\/layer_13_2_Conv2d_3_3x3_s2_256_depthwise\/Relu6:0",
      "beta" : 0
    },
    {
      "pad_r" : 0,
      "fused_relu" : 1,
      "fused_tanh" : 0,
      "debug_info" : "FeatureExtractor\/MobilenetV3\/layer_13_2_Conv2d_3_3x3_s2_256\/Conv2D:0",
      "pad_fill_mode" : 0,
      "pad_b" : 0,
      "pad_l" : 0,
      "top" : "relu_FeatureExtractor\/MobilenetV3\/layer_13_2_Conv2d_3_3x3_s2_256\/Relu6:0",
      "K" : 128,
      "blob_biases" : 415,
      "name" : "FeatureExtractor\/MobilenetV3\/layer_13_2_Conv2d_3_3x3_s2_256\/Conv2D:0",
      "has_batch_norm" : 0,
      "type" : "convolution",
      "n_groups" : 1,
      "pad_t" : 0,
      "has_biases" : 1,
      "C" : 256,
      "bottom" : "FeatureExtractor\/MobilenetV3\/layer_13_2_Conv2d_3_3x3_s2_256_depthwise\/Relu6:0",
      "weights" : {
        "W_U8" : 417,
        "lut_to_float32" : 419
      },
      "Nx" : 1,
      "pad_mode" : 1,
      "pad_value" : 0,
      "Ny" : 1,
      "n_parallel" : 1
    },
    {
      "alpha" : -1,
      "bottom" : "relu_FeatureExtractor\/MobilenetV3\/layer_13_2_Conv2d_3_3x3_s2_256\/Relu6:0",
      "weights" : {

      },
      "mode" : 6,
      "debug_info" : "relu_FeatureExtractor\/MobilenetV3\/layer_13_2_Conv2d_3_3x3_s2_256\/Relu6:0_neg",
      "top" : "relu_FeatureExtractor\/MobilenetV3\/layer_13_2_Conv2d_3_3x3_s2_256\/Relu6:0_neg",
      "type" : "activation",
      "name" : "relu_FeatureExtractor\/MobilenetV3\/layer_13_2_Conv2d_3_3x3_s2_256\/Relu6:0_neg",
      "beta" : 0
    },
    {
      "bottom" : "relu_FeatureExtractor\/MobilenetV3\/layer_13_2_Conv2d_3_3x3_s2_256\/Relu6:0_neg",
      "alpha" : -6,
      "operation" : 25,
      "weights" : {

      },
      "fused_relu" : 0,
      "debug_info" : "relu_FeatureExtractor\/MobilenetV3\/layer_13_2_Conv2d_3_3x3_s2_256\/Relu6:0_clip",
      "top" : "relu_FeatureExtractor\/MobilenetV3\/layer_13_2_Conv2d_3_3x3_s2_256\/Relu6:0_clip",
      "type" : "elementwise",
      "name" : "relu_FeatureExtractor\/MobilenetV3\/layer_13_2_Conv2d_3_3x3_s2_256\/Relu6:0_clip",
      "beta" : 0
    },
    {
      "alpha" : -1,
      "bottom" : "relu_FeatureExtractor\/MobilenetV3\/layer_13_2_Conv2d_3_3x3_s2_256\/Relu6:0_clip",
      "weights" : {

      },
      "mode" : 6,
      "debug_info" : "FeatureExtractor\/MobilenetV3\/layer_13_2_Conv2d_3_3x3_s2_256\/Relu6:0",
      "top" : "FeatureExtractor\/MobilenetV3\/layer_13_2_Conv2d_3_3x3_s2_256\/Relu6:0",
      "type" : "activation",
      "name" : "FeatureExtractor\/MobilenetV3\/layer_13_2_Conv2d_3_3x3_s2_256\/Relu6:0",
      "beta" : 0
    },
    {
      "pad_r" : 0,
      "fused_relu" : 1,
      "fused_tanh" : 0,
      "debug_info" : "BoxPredictor_3\/ClassPredictor_depthwise\/depthwise:0",
      "pad_fill_mode" : 0,
      "pad_b" : 0,
      "pad_l" : 0,
      "top" : "relu_BoxPredictor_3\/ClassPredictor_depthwise\/Relu6:0",
      "K" : 256,
      "blob_biases" : 421,
      "name" : "BoxPredictor_3\/ClassPredictor_depthwise\/depthwise:0",
      "has_batch_norm" : 0,
      "type" : "convolution",
      "n_groups" : 256,
      "pad_t" : 0,
      "has_biases" : 1,
      "C" : 256,
      "bottom" : "FeatureExtractor\/MobilenetV3\/layer_13_2_Conv2d_3_3x3_s2_256\/Relu6:0",
      "weights" : {
        "W_U8" : 423,
        "lut_to_float32" : 425
      },
      "Nx" : 3,
      "pad_mode" : 1,
      "pad_value" : 0,
      "Ny" : 3,
      "n_parallel" : 1
    },
    {
      "alpha" : -1,
      "bottom" : "relu_BoxPredictor_3\/ClassPredictor_depthwise\/Relu6:0",
      "weights" : {

      },
      "mode" : 6,
      "debug_info" : "relu_BoxPredictor_3\/ClassPredictor_depthwise\/Relu6:0_neg",
      "top" : "relu_BoxPredictor_3\/ClassPredictor_depthwise\/Relu6:0_neg",
      "type" : "activation",
      "name" : "relu_BoxPredictor_3\/ClassPredictor_depthwise\/Relu6:0_neg",
      "beta" : 0
    },
    {
      "bottom" : "relu_BoxPredictor_3\/ClassPredictor_depthwise\/Relu6:0_neg",
      "alpha" : -6,
      "operation" : 25,
      "weights" : {

      },
      "fused_relu" : 0,
      "debug_info" : "relu_BoxPredictor_3\/ClassPredictor_depthwise\/Relu6:0_clip",
      "top" : "relu_BoxPredictor_3\/ClassPredictor_depthwise\/Relu6:0_clip",
      "type" : "elementwise",
      "name" : "relu_BoxPredictor_3\/ClassPredictor_depthwise\/Relu6:0_clip",
      "beta" : 0
    },
    {
      "alpha" : -1,
      "bottom" : "relu_BoxPredictor_3\/ClassPredictor_depthwise\/Relu6:0_clip",
      "weights" : {

      },
      "mode" : 6,
      "debug_info" : "BoxPredictor_3\/ClassPredictor_depthwise\/Relu6:0",
      "top" : "BoxPredictor_3\/ClassPredictor_depthwise\/Relu6:0",
      "type" : "activation",
      "name" : "BoxPredictor_3\/ClassPredictor_depthwise\/Relu6:0",
      "beta" : 0
    },
    {
      "pad_r" : 0,
      "fused_relu" : 0,
      "fused_tanh" : 0,
      "debug_info" : "BoxPredictor_3\/ClassPredictor\/Conv2D:0",
      "pad_fill_mode" : 0,
      "pad_b" : 0,
      "pad_l" : 0,
      "top" : "BoxPredictor_3\/ClassPredictor\/BiasAdd:0",
      "K" : 256,
      "blob_biases" : 427,
      "name" : "BoxPredictor_3\/ClassPredictor\/Conv2D:0",
      "has_batch_norm" : 0,
      "type" : "convolution",
      "n_groups" : 1,
      "pad_t" : 0,
      "has_biases" : 1,
      "C" : 18,
      "bottom" : "BoxPredictor_3\/ClassPredictor_depthwise\/Relu6:0",
      "weights" : {
        "W_U8" : 429,
        "lut_to_float32" : 431
      },
      "Nx" : 1,
      "pad_mode" : 1,
      "pad_value" : 0,
      "Ny" : 1,
      "n_parallel" : 1
    },
    {
      "name" : "BoxPredictor_3\/Reshape_1:0",
      "weights" : {

      },
      "dst_w" : 54,
      "version" : 1,
      "dst_n" : 0,
      "type" : "reshape",
      "dst_h" : 1,
      "mode" : 1,
      "bottom" : "BoxPredictor_3\/ClassPredictor\/BiasAdd:0",
      "debug_info" : "BoxPredictor_3\/Reshape_1:0",
      "dst_seq" : 1,
      "dst_k" : 3,
      "top" : "BoxPredictor_3\/Reshape_1:0"
    },
    {
      "pad_r" : 0,
      "fused_relu" : 1,
      "fused_tanh" : 0,
      "debug_info" : "BoxPredictor_3\/BoxEncodingPredictor_depthwise\/depthwise:0",
      "pad_fill_mode" : 0,
      "pad_b" : 0,
      "pad_l" : 0,
      "top" : "relu_BoxPredictor_3\/BoxEncodingPredictor_depthwise\/Relu6:0",
      "K" : 256,
      "blob_biases" : 433,
      "name" : "BoxPredictor_3\/BoxEncodingPredictor_depthwise\/depthwise:0",
      "has_batch_norm" : 0,
      "type" : "convolution",
      "n_groups" : 256,
      "pad_t" : 0,
      "has_biases" : 1,
      "C" : 256,
      "bottom" : "FeatureExtractor\/MobilenetV3\/layer_13_2_Conv2d_3_3x3_s2_256\/Relu6:0",
      "weights" : {
        "W_U8" : 435,
        "lut_to_float32" : 437
      },
      "Nx" : 3,
      "pad_mode" : 1,
      "pad_value" : 0,
      "Ny" : 3,
      "n_parallel" : 1
    },
    {
      "alpha" : -1,
      "bottom" : "relu_BoxPredictor_3\/BoxEncodingPredictor_depthwise\/Relu6:0",
      "weights" : {

      },
      "mode" : 6,
      "debug_info" : "relu_BoxPredictor_3\/BoxEncodingPredictor_depthwise\/Relu6:0_neg",
      "top" : "relu_BoxPredictor_3\/BoxEncodingPredictor_depthwise\/Relu6:0_neg",
      "type" : "activation",
      "name" : "relu_BoxPredictor_3\/BoxEncodingPredictor_depthwise\/Relu6:0_neg",
      "beta" : 0
    },
    {
      "bottom" : "relu_BoxPredictor_3\/BoxEncodingPredictor_depthwise\/Relu6:0_neg",
      "alpha" : -6,
      "operation" : 25,
      "weights" : {

      },
      "fused_relu" : 0,
      "debug_info" : "relu_BoxPredictor_3\/BoxEncodingPredictor_depthwise\/Relu6:0_clip",
      "top" : "relu_BoxPredictor_3\/BoxEncodingPredictor_depthwise\/Relu6:0_clip",
      "type" : "elementwise",
      "name" : "relu_BoxPredictor_3\/BoxEncodingPredictor_depthwise\/Relu6:0_clip",
      "beta" : 0
    },
    {
      "alpha" : -1,
      "bottom" : "relu_BoxPredictor_3\/BoxEncodingPredictor_depthwise\/Relu6:0_clip",
      "weights" : {

      },
      "mode" : 6,
      "debug_info" : "BoxPredictor_3\/BoxEncodingPredictor_depthwise\/Relu6:0",
      "top" : "BoxPredictor_3\/BoxEncodingPredictor_depthwise\/Relu6:0",
      "type" : "activation",
      "name" : "BoxPredictor_3\/BoxEncodingPredictor_depthwise\/Relu6:0",
      "beta" : 0
    },
    {
      "pad_r" : 0,
      "fused_relu" : 0,
      "fused_tanh" : 0,
      "debug_info" : "BoxPredictor_3\/BoxEncodingPredictor\/Conv2D:0",
      "pad_fill_mode" : 0,
      "pad_b" : 0,
      "pad_l" : 0,
      "top" : "BoxPredictor_3\/BoxEncodingPredictor\/BiasAdd:0",
      "K" : 256,
      "blob_biases" : 439,
      "name" : "BoxPredictor_3\/BoxEncodingPredictor\/Conv2D:0",
      "has_batch_norm" : 0,
      "type" : "convolution",
      "n_groups" : 1,
      "pad_t" : 0,
      "has_biases" : 1,
      "C" : 24,
      "bottom" : "BoxPredictor_3\/BoxEncodingPredictor_depthwise\/Relu6:0",
      "weights" : {
        "W_U8" : 441,
        "lut_to_float32" : 443
      },
      "Nx" : 1,
      "pad_mode" : 1,
      "pad_value" : 0,
      "Ny" : 1,
      "n_parallel" : 1
    },
    {
      "name" : "BoxPredictor_3\/Reshape:0",
      "weights" : {

      },
      "dst_w" : 1,
      "version" : 1,
      "dst_n" : 0,
      "type" : "reshape",
      "dst_h" : 54,
      "mode" : 1,
      "bottom" : "BoxPredictor_3\/BoxEncodingPredictor\/BiasAdd:0",
      "debug_info" : "BoxPredictor_3\/Reshape:0",
      "dst_seq" : 1,
      "dst_k" : 4,
      "top" : "BoxPredictor_3\/Reshape:0"
    },
    {
      "pad_r" : 0,
      "fused_relu" : 1,
      "fused_tanh" : 0,
      "debug_info" : "FeatureExtractor\/MobilenetV3\/layer_13_1_Conv2d_4_1x1_128\/Conv2D:0",
      "pad_fill_mode" : 0,
      "pad_b" : 0,
      "pad_l" : 0,
      "top" : "relu_FeatureExtractor\/MobilenetV3\/layer_13_1_Conv2d_4_1x1_128\/Relu6:0",
      "K" : 256,
      "blob_biases" : 445,
      "name" : "FeatureExtractor\/MobilenetV3\/layer_13_1_Conv2d_4_1x1_128\/Conv2D:0",
      "has_batch_norm" : 0,
      "type" : "convolution",
      "n_groups" : 1,
      "pad_t" : 0,
      "has_biases" : 1,
      "C" : 128,
      "bottom" : "FeatureExtractor\/MobilenetV3\/layer_13_2_Conv2d_3_3x3_s2_256\/Relu6:0",
      "weights" : {
        "W_U8" : 447,
        "lut_to_float32" : 449
      },
      "Nx" : 1,
      "pad_mode" : 1,
      "pad_value" : 0,
      "Ny" : 1,
      "n_parallel" : 1
    },
    {
      "alpha" : -1,
      "bottom" : "relu_FeatureExtractor\/MobilenetV3\/layer_13_1_Conv2d_4_1x1_128\/Relu6:0",
      "weights" : {

      },
      "mode" : 6,
      "debug_info" : "relu_FeatureExtractor\/MobilenetV3\/layer_13_1_Conv2d_4_1x1_128\/Relu6:0_neg",
      "top" : "relu_FeatureExtractor\/MobilenetV3\/layer_13_1_Conv2d_4_1x1_128\/Relu6:0_neg",
      "type" : "activation",
      "name" : "relu_FeatureExtractor\/MobilenetV3\/layer_13_1_Conv2d_4_1x1_128\/Relu6:0_neg",
      "beta" : 0
    },
    {
      "bottom" : "relu_FeatureExtractor\/MobilenetV3\/layer_13_1_Conv2d_4_1x1_128\/Relu6:0_neg",
      "alpha" : -6,
      "operation" : 25,
      "weights" : {

      },
      "fused_relu" : 0,
      "debug_info" : "relu_FeatureExtractor\/MobilenetV3\/layer_13_1_Conv2d_4_1x1_128\/Relu6:0_clip",
      "top" : "relu_FeatureExtractor\/MobilenetV3\/layer_13_1_Conv2d_4_1x1_128\/Relu6:0_clip",
      "type" : "elementwise",
      "name" : "relu_FeatureExtractor\/MobilenetV3\/layer_13_1_Conv2d_4_1x1_128\/Relu6:0_clip",
      "beta" : 0
    },
    {
      "alpha" : -1,
      "bottom" : "relu_FeatureExtractor\/MobilenetV3\/layer_13_1_Conv2d_4_1x1_128\/Relu6:0_clip",
      "weights" : {

      },
      "mode" : 6,
      "debug_info" : "FeatureExtractor\/MobilenetV3\/layer_13_1_Conv2d_4_1x1_128\/Relu6:0",
      "top" : "FeatureExtractor\/MobilenetV3\/layer_13_1_Conv2d_4_1x1_128\/Relu6:0",
      "type" : "activation",
      "name" : "FeatureExtractor\/MobilenetV3\/layer_13_1_Conv2d_4_1x1_128\/Relu6:0",
      "beta" : 0
    },
    {
      "pad_r" : 0,
      "fused_relu" : 1,
      "fused_tanh" : 0,
      "debug_info" : "FeatureExtractor\/MobilenetV3\/layer_13_2_Conv2d_4_3x3_s2_256_depthwise\/depthwise:0",
      "pad_fill_mode" : 0,
      "pad_b" : 0,
      "pad_l" : 0,
      "top" : "relu_FeatureExtractor\/MobilenetV3\/layer_13_2_Conv2d_4_3x3_s2_256_depthwise\/Relu6:0",
      "K" : 128,
      "blob_biases" : 451,
      "stride_x" : 2,
      "name" : "FeatureExtractor\/MobilenetV3\/layer_13_2_Conv2d_4_3x3_s2_256_depthwise\/depthwise:0",
      "has_batch_norm" : 0,
      "type" : "convolution",
      "n_groups" : 128,
      "pad_t" : 0,
      "stride_y" : 2,
      "has_biases" : 1,
      "C" : 128,
      "bottom" : "FeatureExtractor\/MobilenetV3\/layer_13_1_Conv2d_4_1x1_128\/Relu6:0",
      "weights" : {
        "W_U8" : 453,
        "lut_to_float32" : 455
      },
      "Nx" : 3,
      "pad_mode" : 1,
      "pad_value" : 0,
      "Ny" : 3,
      "n_parallel" : 1
    },
    {
      "alpha" : -1,
      "bottom" : "relu_FeatureExtractor\/MobilenetV3\/layer_13_2_Conv2d_4_3x3_s2_256_depthwise\/Relu6:0",
      "weights" : {

      },
      "mode" : 6,
      "debug_info" : "relu_FeatureExtractor\/MobilenetV3\/layer_13_2_Conv2d_4_3x3_s2_256_depthwise\/Relu6:0_neg",
      "top" : "relu_FeatureExtractor\/MobilenetV3\/layer_13_2_Conv2d_4_3x3_s2_256_depthwise\/Relu6:0_neg",
      "type" : "activation",
      "name" : "relu_FeatureExtractor\/MobilenetV3\/layer_13_2_Conv2d_4_3x3_s2_256_depthwise\/Relu6:0_neg",
      "beta" : 0
    },
    {
      "bottom" : "relu_FeatureExtractor\/MobilenetV3\/layer_13_2_Conv2d_4_3x3_s2_256_depthwise\/Relu6:0_neg",
      "alpha" : -6,
      "operation" : 25,
      "weights" : {

      },
      "fused_relu" : 0,
      "debug_info" : "relu_FeatureExtractor\/MobilenetV3\/layer_13_2_Conv2d_4_3x3_s2_256_depthwise\/Relu6:0_clip",
      "top" : "relu_FeatureExtractor\/MobilenetV3\/layer_13_2_Conv2d_4_3x3_s2_256_depthwise\/Relu6:0_clip",
      "type" : "elementwise",
      "name" : "relu_FeatureExtractor\/MobilenetV3\/layer_13_2_Conv2d_4_3x3_s2_256_depthwise\/Relu6:0_clip",
      "beta" : 0
    },
    {
      "alpha" : -1,
      "bottom" : "relu_FeatureExtractor\/MobilenetV3\/layer_13_2_Conv2d_4_3x3_s2_256_depthwise\/Relu6:0_clip",
      "weights" : {

      },
      "mode" : 6,
      "debug_info" : "FeatureExtractor\/MobilenetV3\/layer_13_2_Conv2d_4_3x3_s2_256_depthwise\/Relu6:0",
      "top" : "FeatureExtractor\/MobilenetV3\/layer_13_2_Conv2d_4_3x3_s2_256_depthwise\/Relu6:0",
      "type" : "activation",
      "name" : "FeatureExtractor\/MobilenetV3\/layer_13_2_Conv2d_4_3x3_s2_256_depthwise\/Relu6:0",
      "beta" : 0
    },
    {
      "pad_r" : 0,
      "fused_relu" : 1,
      "fused_tanh" : 0,
      "debug_info" : "FeatureExtractor\/MobilenetV3\/layer_13_2_Conv2d_4_3x3_s2_256\/Conv2D:0",
      "pad_fill_mode" : 0,
      "pad_b" : 0,
      "pad_l" : 0,
      "top" : "relu_FeatureExtractor\/MobilenetV3\/layer_13_2_Conv2d_4_3x3_s2_256\/Relu6:0",
      "K" : 128,
      "blob_biases" : 457,
      "name" : "FeatureExtractor\/MobilenetV3\/layer_13_2_Conv2d_4_3x3_s2_256\/Conv2D:0",
      "has_batch_norm" : 0,
      "type" : "convolution",
      "n_groups" : 1,
      "pad_t" : 0,
      "has_biases" : 1,
      "C" : 256,
      "bottom" : "FeatureExtractor\/MobilenetV3\/layer_13_2_Conv2d_4_3x3_s2_256_depthwise\/Relu6:0",
      "weights" : {
        "W_U8" : 459,
        "lut_to_float32" : 461
      },
      "Nx" : 1,
      "pad_mode" : 1,
      "pad_value" : 0,
      "Ny" : 1,
      "n_parallel" : 1
    },
    {
      "alpha" : -1,
      "bottom" : "relu_FeatureExtractor\/MobilenetV3\/layer_13_2_Conv2d_4_3x3_s2_256\/Relu6:0",
      "weights" : {

      },
      "mode" : 6,
      "debug_info" : "relu_FeatureExtractor\/MobilenetV3\/layer_13_2_Conv2d_4_3x3_s2_256\/Relu6:0_neg",
      "top" : "relu_FeatureExtractor\/MobilenetV3\/layer_13_2_Conv2d_4_3x3_s2_256\/Relu6:0_neg",
      "type" : "activation",
      "name" : "relu_FeatureExtractor\/MobilenetV3\/layer_13_2_Conv2d_4_3x3_s2_256\/Relu6:0_neg",
      "beta" : 0
    },
    {
      "bottom" : "relu_FeatureExtractor\/MobilenetV3\/layer_13_2_Conv2d_4_3x3_s2_256\/Relu6:0_neg",
      "alpha" : -6,
      "operation" : 25,
      "weights" : {

      },
      "fused_relu" : 0,
      "debug_info" : "relu_FeatureExtractor\/MobilenetV3\/layer_13_2_Conv2d_4_3x3_s2_256\/Relu6:0_clip",
      "top" : "relu_FeatureExtractor\/MobilenetV3\/layer_13_2_Conv2d_4_3x3_s2_256\/Relu6:0_clip",
      "type" : "elementwise",
      "name" : "relu_FeatureExtractor\/MobilenetV3\/layer_13_2_Conv2d_4_3x3_s2_256\/Relu6:0_clip",
      "beta" : 0
    },
    {
      "alpha" : -1,
      "bottom" : "relu_FeatureExtractor\/MobilenetV3\/layer_13_2_Conv2d_4_3x3_s2_256\/Relu6:0_clip",
      "weights" : {

      },
      "mode" : 6,
      "debug_info" : "FeatureExtractor\/MobilenetV3\/layer_13_2_Conv2d_4_3x3_s2_256\/Relu6:0",
      "top" : "FeatureExtractor\/MobilenetV3\/layer_13_2_Conv2d_4_3x3_s2_256\/Relu6:0",
      "type" : "activation",
      "name" : "FeatureExtractor\/MobilenetV3\/layer_13_2_Conv2d_4_3x3_s2_256\/Relu6:0",
      "beta" : 0
    },
    {
      "pad_r" : 0,
      "fused_relu" : 1,
      "fused_tanh" : 0,
      "debug_info" : "BoxPredictor_4\/ClassPredictor_depthwise\/depthwise:0",
      "pad_fill_mode" : 0,
      "pad_b" : 0,
      "pad_l" : 0,
      "top" : "relu_BoxPredictor_4\/ClassPredictor_depthwise\/Relu6:0",
      "K" : 256,
      "blob_biases" : 463,
      "name" : "BoxPredictor_4\/ClassPredictor_depthwise\/depthwise:0",
      "has_batch_norm" : 0,
      "type" : "convolution",
      "n_groups" : 256,
      "pad_t" : 0,
      "has_biases" : 1,
      "C" : 256,
      "bottom" : "FeatureExtractor\/MobilenetV3\/layer_13_2_Conv2d_4_3x3_s2_256\/Relu6:0",
      "weights" : {
        "W_U8" : 465,
        "lut_to_float32" : 467
      },
      "Nx" : 3,
      "pad_mode" : 1,
      "pad_value" : 0,
      "Ny" : 3,
      "n_parallel" : 1
    },
    {
      "alpha" : -1,
      "bottom" : "relu_BoxPredictor_4\/ClassPredictor_depthwise\/Relu6:0",
      "weights" : {

      },
      "mode" : 6,
      "debug_info" : "relu_BoxPredictor_4\/ClassPredictor_depthwise\/Relu6:0_neg",
      "top" : "relu_BoxPredictor_4\/ClassPredictor_depthwise\/Relu6:0_neg",
      "type" : "activation",
      "name" : "relu_BoxPredictor_4\/ClassPredictor_depthwise\/Relu6:0_neg",
      "beta" : 0
    },
    {
      "bottom" : "relu_BoxPredictor_4\/ClassPredictor_depthwise\/Relu6:0_neg",
      "alpha" : -6,
      "operation" : 25,
      "weights" : {

      },
      "fused_relu" : 0,
      "debug_info" : "relu_BoxPredictor_4\/ClassPredictor_depthwise\/Relu6:0_clip",
      "top" : "relu_BoxPredictor_4\/ClassPredictor_depthwise\/Relu6:0_clip",
      "type" : "elementwise",
      "name" : "relu_BoxPredictor_4\/ClassPredictor_depthwise\/Relu6:0_clip",
      "beta" : 0
    },
    {
      "alpha" : -1,
      "bottom" : "relu_BoxPredictor_4\/ClassPredictor_depthwise\/Relu6:0_clip",
      "weights" : {

      },
      "mode" : 6,
      "debug_info" : "BoxPredictor_4\/ClassPredictor_depthwise\/Relu6:0",
      "top" : "BoxPredictor_4\/ClassPredictor_depthwise\/Relu6:0",
      "type" : "activation",
      "name" : "BoxPredictor_4\/ClassPredictor_depthwise\/Relu6:0",
      "beta" : 0
    },
    {
      "pad_r" : 0,
      "fused_relu" : 0,
      "fused_tanh" : 0,
      "debug_info" : "BoxPredictor_4\/ClassPredictor\/Conv2D:0",
      "pad_fill_mode" : 0,
      "pad_b" : 0,
      "pad_l" : 0,
      "top" : "BoxPredictor_4\/ClassPredictor\/BiasAdd:0",
      "K" : 256,
      "blob_biases" : 469,
      "name" : "BoxPredictor_4\/ClassPredictor\/Conv2D:0",
      "has_batch_norm" : 0,
      "type" : "convolution",
      "n_groups" : 1,
      "pad_t" : 0,
      "has_biases" : 1,
      "C" : 18,
      "bottom" : "BoxPredictor_4\/ClassPredictor_depthwise\/Relu6:0",
      "weights" : {
        "W_U8" : 471,
        "lut_to_float32" : 473
      },
      "Nx" : 1,
      "pad_mode" : 1,
      "pad_value" : 0,
      "Ny" : 1,
      "n_parallel" : 1
    },
    {
      "name" : "BoxPredictor_4\/Reshape_1:0",
      "weights" : {

      },
      "dst_w" : 24,
      "version" : 1,
      "dst_n" : 0,
      "type" : "reshape",
      "dst_h" : 1,
      "mode" : 1,
      "bottom" : "BoxPredictor_4\/ClassPredictor\/BiasAdd:0",
      "debug_info" : "BoxPredictor_4\/Reshape_1:0",
      "dst_seq" : 1,
      "dst_k" : 3,
      "top" : "BoxPredictor_4\/Reshape_1:0"
    },
    {
      "pad_r" : 0,
      "fused_relu" : 1,
      "fused_tanh" : 0,
      "debug_info" : "BoxPredictor_4\/BoxEncodingPredictor_depthwise\/depthwise:0",
      "pad_fill_mode" : 0,
      "pad_b" : 0,
      "pad_l" : 0,
      "top" : "relu_BoxPredictor_4\/BoxEncodingPredictor_depthwise\/Relu6:0",
      "K" : 256,
      "blob_biases" : 475,
      "name" : "BoxPredictor_4\/BoxEncodingPredictor_depthwise\/depthwise:0",
      "has_batch_norm" : 0,
      "type" : "convolution",
      "n_groups" : 256,
      "pad_t" : 0,
      "has_biases" : 1,
      "C" : 256,
      "bottom" : "FeatureExtractor\/MobilenetV3\/layer_13_2_Conv2d_4_3x3_s2_256\/Relu6:0",
      "weights" : {
        "W_U8" : 477,
        "lut_to_float32" : 479
      },
      "Nx" : 3,
      "pad_mode" : 1,
      "pad_value" : 0,
      "Ny" : 3,
      "n_parallel" : 1
    },
    {
      "alpha" : -1,
      "bottom" : "relu_BoxPredictor_4\/BoxEncodingPredictor_depthwise\/Relu6:0",
      "weights" : {

      },
      "mode" : 6,
      "debug_info" : "relu_BoxPredictor_4\/BoxEncodingPredictor_depthwise\/Relu6:0_neg",
      "top" : "relu_BoxPredictor_4\/BoxEncodingPredictor_depthwise\/Relu6:0_neg",
      "type" : "activation",
      "name" : "relu_BoxPredictor_4\/BoxEncodingPredictor_depthwise\/Relu6:0_neg",
      "beta" : 0
    },
    {
      "bottom" : "relu_BoxPredictor_4\/BoxEncodingPredictor_depthwise\/Relu6:0_neg",
      "alpha" : -6,
      "operation" : 25,
      "weights" : {

      },
      "fused_relu" : 0,
      "debug_info" : "relu_BoxPredictor_4\/BoxEncodingPredictor_depthwise\/Relu6:0_clip",
      "top" : "relu_BoxPredictor_4\/BoxEncodingPredictor_depthwise\/Relu6:0_clip",
      "type" : "elementwise",
      "name" : "relu_BoxPredictor_4\/BoxEncodingPredictor_depthwise\/Relu6:0_clip",
      "beta" : 0
    },
    {
      "alpha" : -1,
      "bottom" : "relu_BoxPredictor_4\/BoxEncodingPredictor_depthwise\/Relu6:0_clip",
      "weights" : {

      },
      "mode" : 6,
      "debug_info" : "BoxPredictor_4\/BoxEncodingPredictor_depthwise\/Relu6:0",
      "top" : "BoxPredictor_4\/BoxEncodingPredictor_depthwise\/Relu6:0",
      "type" : "activation",
      "name" : "BoxPredictor_4\/BoxEncodingPredictor_depthwise\/Relu6:0",
      "beta" : 0
    },
    {
      "pad_r" : 0,
      "fused_relu" : 0,
      "fused_tanh" : 0,
      "debug_info" : "BoxPredictor_4\/BoxEncodingPredictor\/Conv2D:0",
      "pad_fill_mode" : 0,
      "pad_b" : 0,
      "pad_l" : 0,
      "top" : "BoxPredictor_4\/BoxEncodingPredictor\/BiasAdd:0",
      "K" : 256,
      "blob_biases" : 481,
      "name" : "BoxPredictor_4\/BoxEncodingPredictor\/Conv2D:0",
      "has_batch_norm" : 0,
      "type" : "convolution",
      "n_groups" : 1,
      "pad_t" : 0,
      "has_biases" : 1,
      "C" : 24,
      "bottom" : "BoxPredictor_4\/BoxEncodingPredictor_depthwise\/Relu6:0",
      "weights" : {
        "W_U8" : 483,
        "lut_to_float32" : 485
      },
      "Nx" : 1,
      "pad_mode" : 1,
      "pad_value" : 0,
      "Ny" : 1,
      "n_parallel" : 1
    },
    {
      "name" : "BoxPredictor_4\/Reshape:0",
      "weights" : {

      },
      "dst_w" : 1,
      "version" : 1,
      "dst_n" : 0,
      "type" : "reshape",
      "dst_h" : 24,
      "mode" : 1,
      "bottom" : "BoxPredictor_4\/BoxEncodingPredictor\/BiasAdd:0",
      "debug_info" : "BoxPredictor_4\/Reshape:0",
      "dst_seq" : 1,
      "dst_k" : 4,
      "top" : "BoxPredictor_4\/Reshape:0"
    },
    {
      "pad_r" : 0,
      "fused_relu" : 1,
      "fused_tanh" : 0,
      "debug_info" : "FeatureExtractor\/MobilenetV3\/layer_13_1_Conv2d_5_1x1_64\/Conv2D:0",
      "pad_fill_mode" : 0,
      "pad_b" : 0,
      "pad_l" : 0,
      "top" : "relu_FeatureExtractor\/MobilenetV3\/layer_13_1_Conv2d_5_1x1_64\/Relu6:0",
      "K" : 256,
      "blob_biases" : 487,
      "name" : "FeatureExtractor\/MobilenetV3\/layer_13_1_Conv2d_5_1x1_64\/Conv2D:0",
      "has_batch_norm" : 0,
      "type" : "convolution",
      "n_groups" : 1,
      "pad_t" : 0,
      "has_biases" : 1,
      "C" : 64,
      "bottom" : "FeatureExtractor\/MobilenetV3\/layer_13_2_Conv2d_4_3x3_s2_256\/Relu6:0",
      "weights" : {
        "W_U8" : 489,
        "lut_to_float32" : 491
      },
      "Nx" : 1,
      "pad_mode" : 1,
      "pad_value" : 0,
      "Ny" : 1,
      "n_parallel" : 1
    },
    {
      "alpha" : -1,
      "bottom" : "relu_FeatureExtractor\/MobilenetV3\/layer_13_1_Conv2d_5_1x1_64\/Relu6:0",
      "weights" : {

      },
      "mode" : 6,
      "debug_info" : "relu_FeatureExtractor\/MobilenetV3\/layer_13_1_Conv2d_5_1x1_64\/Relu6:0_neg",
      "top" : "relu_FeatureExtractor\/MobilenetV3\/layer_13_1_Conv2d_5_1x1_64\/Relu6:0_neg",
      "type" : "activation",
      "name" : "relu_FeatureExtractor\/MobilenetV3\/layer_13_1_Conv2d_5_1x1_64\/Relu6:0_neg",
      "beta" : 0
    },
    {
      "bottom" : "relu_FeatureExtractor\/MobilenetV3\/layer_13_1_Conv2d_5_1x1_64\/Relu6:0_neg",
      "alpha" : -6,
      "operation" : 25,
      "weights" : {

      },
      "fused_relu" : 0,
      "debug_info" : "relu_FeatureExtractor\/MobilenetV3\/layer_13_1_Conv2d_5_1x1_64\/Relu6:0_clip",
      "top" : "relu_FeatureExtractor\/MobilenetV3\/layer_13_1_Conv2d_5_1x1_64\/Relu6:0_clip",
      "type" : "elementwise",
      "name" : "relu_FeatureExtractor\/MobilenetV3\/layer_13_1_Conv2d_5_1x1_64\/Relu6:0_clip",
      "beta" : 0
    },
    {
      "alpha" : -1,
      "bottom" : "relu_FeatureExtractor\/MobilenetV3\/layer_13_1_Conv2d_5_1x1_64\/Relu6:0_clip",
      "weights" : {

      },
      "mode" : 6,
      "debug_info" : "FeatureExtractor\/MobilenetV3\/layer_13_1_Conv2d_5_1x1_64\/Relu6:0",
      "top" : "FeatureExtractor\/MobilenetV3\/layer_13_1_Conv2d_5_1x1_64\/Relu6:0",
      "type" : "activation",
      "name" : "FeatureExtractor\/MobilenetV3\/layer_13_1_Conv2d_5_1x1_64\/Relu6:0",
      "beta" : 0
    },
    {
      "pad_r" : 0,
      "fused_relu" : 1,
      "fused_tanh" : 0,
      "debug_info" : "FeatureExtractor\/MobilenetV3\/layer_13_2_Conv2d_5_3x3_s2_128_depthwise\/depthwise:0",
      "pad_fill_mode" : 0,
      "pad_b" : 0,
      "pad_l" : 0,
      "top" : "relu_FeatureExtractor\/MobilenetV3\/layer_13_2_Conv2d_5_3x3_s2_128_depthwise\/Relu6:0",
      "K" : 64,
      "blob_biases" : 493,
      "stride_x" : 2,
      "name" : "FeatureExtractor\/MobilenetV3\/layer_13_2_Conv2d_5_3x3_s2_128_depthwise\/depthwise:0",
      "has_batch_norm" : 0,
      "type" : "convolution",
      "n_groups" : 64,
      "pad_t" : 0,
      "stride_y" : 2,
      "has_biases" : 1,
      "C" : 64,
      "bottom" : "FeatureExtractor\/MobilenetV3\/layer_13_1_Conv2d_5_1x1_64\/Relu6:0",
      "weights" : {
        "W_U8" : 495,
        "lut_to_float32" : 497
      },
      "Nx" : 3,
      "pad_mode" : 1,
      "pad_value" : 0,
      "Ny" : 3,
      "n_parallel" : 1
    },
    {
      "alpha" : -1,
      "bottom" : "relu_FeatureExtractor\/MobilenetV3\/layer_13_2_Conv2d_5_3x3_s2_128_depthwise\/Relu6:0",
      "weights" : {

      },
      "mode" : 6,
      "debug_info" : "relu_FeatureExtractor\/MobilenetV3\/layer_13_2_Conv2d_5_3x3_s2_128_depthwise\/Relu6:0_neg",
      "top" : "relu_FeatureExtractor\/MobilenetV3\/layer_13_2_Conv2d_5_3x3_s2_128_depthwise\/Relu6:0_neg",
      "type" : "activation",
      "name" : "relu_FeatureExtractor\/MobilenetV3\/layer_13_2_Conv2d_5_3x3_s2_128_depthwise\/Relu6:0_neg",
      "beta" : 0
    },
    {
      "bottom" : "relu_FeatureExtractor\/MobilenetV3\/layer_13_2_Conv2d_5_3x3_s2_128_depthwise\/Relu6:0_neg",
      "alpha" : -6,
      "operation" : 25,
      "weights" : {

      },
      "fused_relu" : 0,
      "debug_info" : "relu_FeatureExtractor\/MobilenetV3\/layer_13_2_Conv2d_5_3x3_s2_128_depthwise\/Relu6:0_clip",
      "top" : "relu_FeatureExtractor\/MobilenetV3\/layer_13_2_Conv2d_5_3x3_s2_128_depthwise\/Relu6:0_clip",
      "type" : "elementwise",
      "name" : "relu_FeatureExtractor\/MobilenetV3\/layer_13_2_Conv2d_5_3x3_s2_128_depthwise\/Relu6:0_clip",
      "beta" : 0
    },
    {
      "alpha" : -1,
      "bottom" : "relu_FeatureExtractor\/MobilenetV3\/layer_13_2_Conv2d_5_3x3_s2_128_depthwise\/Relu6:0_clip",
      "weights" : {

      },
      "mode" : 6,
      "debug_info" : "FeatureExtractor\/MobilenetV3\/layer_13_2_Conv2d_5_3x3_s2_128_depthwise\/Relu6:0",
      "top" : "FeatureExtractor\/MobilenetV3\/layer_13_2_Conv2d_5_3x3_s2_128_depthwise\/Relu6:0",
      "type" : "activation",
      "name" : "FeatureExtractor\/MobilenetV3\/layer_13_2_Conv2d_5_3x3_s2_128_depthwise\/Relu6:0",
      "beta" : 0
    },
    {
      "pad_r" : 0,
      "fused_relu" : 1,
      "fused_tanh" : 0,
      "debug_info" : "FeatureExtractor\/MobilenetV3\/layer_13_2_Conv2d_5_3x3_s2_128\/Conv2D:0",
      "pad_fill_mode" : 0,
      "pad_b" : 0,
      "pad_l" : 0,
      "top" : "relu_FeatureExtractor\/MobilenetV3\/layer_13_2_Conv2d_5_3x3_s2_128\/Relu6:0",
      "K" : 64,
      "blob_biases" : 499,
      "name" : "FeatureExtractor\/MobilenetV3\/layer_13_2_Conv2d_5_3x3_s2_128\/Conv2D:0",
      "has_batch_norm" : 0,
      "type" : "convolution",
      "n_groups" : 1,
      "pad_t" : 0,
      "has_biases" : 1,
      "C" : 128,
      "bottom" : "FeatureExtractor\/MobilenetV3\/layer_13_2_Conv2d_5_3x3_s2_128_depthwise\/Relu6:0",
      "weights" : {
        "W_U8" : 501,
        "lut_to_float32" : 503
      },
      "Nx" : 1,
      "pad_mode" : 1,
      "pad_value" : 0,
      "Ny" : 1,
      "n_parallel" : 1
    },
    {
      "alpha" : -1,
      "bottom" : "relu_FeatureExtractor\/MobilenetV3\/layer_13_2_Conv2d_5_3x3_s2_128\/Relu6:0",
      "weights" : {

      },
      "mode" : 6,
      "debug_info" : "relu_FeatureExtractor\/MobilenetV3\/layer_13_2_Conv2d_5_3x3_s2_128\/Relu6:0_neg",
      "top" : "relu_FeatureExtractor\/MobilenetV3\/layer_13_2_Conv2d_5_3x3_s2_128\/Relu6:0_neg",
      "type" : "activation",
      "name" : "relu_FeatureExtractor\/MobilenetV3\/layer_13_2_Conv2d_5_3x3_s2_128\/Relu6:0_neg",
      "beta" : 0
    },
    {
      "bottom" : "relu_FeatureExtractor\/MobilenetV3\/layer_13_2_Conv2d_5_3x3_s2_128\/Relu6:0_neg",
      "alpha" : -6,
      "operation" : 25,
      "weights" : {

      },
      "fused_relu" : 0,
      "debug_info" : "relu_FeatureExtractor\/MobilenetV3\/layer_13_2_Conv2d_5_3x3_s2_128\/Relu6:0_clip",
      "top" : "relu_FeatureExtractor\/MobilenetV3\/layer_13_2_Conv2d_5_3x3_s2_128\/Relu6:0_clip",
      "type" : "elementwise",
      "name" : "relu_FeatureExtractor\/MobilenetV3\/layer_13_2_Conv2d_5_3x3_s2_128\/Relu6:0_clip",
      "beta" : 0
    },
    {
      "alpha" : -1,
      "bottom" : "relu_FeatureExtractor\/MobilenetV3\/layer_13_2_Conv2d_5_3x3_s2_128\/Relu6:0_clip",
      "weights" : {

      },
      "mode" : 6,
      "debug_info" : "FeatureExtractor\/MobilenetV3\/layer_13_2_Conv2d_5_3x3_s2_128\/Relu6:0",
      "top" : "FeatureExtractor\/MobilenetV3\/layer_13_2_Conv2d_5_3x3_s2_128\/Relu6:0",
      "type" : "activation",
      "name" : "FeatureExtractor\/MobilenetV3\/layer_13_2_Conv2d_5_3x3_s2_128\/Relu6:0",
      "beta" : 0
    },
    {
      "pad_r" : 0,
      "fused_relu" : 1,
      "fused_tanh" : 0,
      "debug_info" : "BoxPredictor_5\/ClassPredictor_depthwise\/depthwise:0",
      "pad_fill_mode" : 0,
      "pad_b" : 0,
      "pad_l" : 0,
      "top" : "relu_BoxPredictor_5\/ClassPredictor_depthwise\/Relu6:0",
      "K" : 128,
      "blob_biases" : 505,
      "name" : "BoxPredictor_5\/ClassPredictor_depthwise\/depthwise:0",
      "has_batch_norm" : 0,
      "type" : "convolution",
      "n_groups" : 128,
      "pad_t" : 0,
      "has_biases" : 1,
      "C" : 128,
      "bottom" : "FeatureExtractor\/MobilenetV3\/layer_13_2_Conv2d_5_3x3_s2_128\/Relu6:0",
      "weights" : {
        "W_U8" : 507,
        "lut_to_float32" : 509
      },
      "Nx" : 3,
      "pad_mode" : 1,
      "pad_value" : 0,
      "Ny" : 3,
      "n_parallel" : 1
    },
    {
      "alpha" : -1,
      "bottom" : "relu_BoxPredictor_5\/ClassPredictor_depthwise\/Relu6:0",
      "weights" : {

      },
      "mode" : 6,
      "debug_info" : "relu_BoxPredictor_5\/ClassPredictor_depthwise\/Relu6:0_neg",
      "top" : "relu_BoxPredictor_5\/ClassPredictor_depthwise\/Relu6:0_neg",
      "type" : "activation",
      "name" : "relu_BoxPredictor_5\/ClassPredictor_depthwise\/Relu6:0_neg",
      "beta" : 0
    },
    {
      "bottom" : "relu_BoxPredictor_5\/ClassPredictor_depthwise\/Relu6:0_neg",
      "alpha" : -6,
      "operation" : 25,
      "weights" : {

      },
      "fused_relu" : 0,
      "debug_info" : "relu_BoxPredictor_5\/ClassPredictor_depthwise\/Relu6:0_clip",
      "top" : "relu_BoxPredictor_5\/ClassPredictor_depthwise\/Relu6:0_clip",
      "type" : "elementwise",
      "name" : "relu_BoxPredictor_5\/ClassPredictor_depthwise\/Relu6:0_clip",
      "beta" : 0
    },
    {
      "alpha" : -1,
      "bottom" : "relu_BoxPredictor_5\/ClassPredictor_depthwise\/Relu6:0_clip",
      "weights" : {

      },
      "mode" : 6,
      "debug_info" : "BoxPredictor_5\/ClassPredictor_depthwise\/Relu6:0",
      "top" : "BoxPredictor_5\/ClassPredictor_depthwise\/Relu6:0",
      "type" : "activation",
      "name" : "BoxPredictor_5\/ClassPredictor_depthwise\/Relu6:0",
      "beta" : 0
    },
    {
      "pad_r" : 0,
      "fused_relu" : 0,
      "fused_tanh" : 0,
      "debug_info" : "BoxPredictor_5\/ClassPredictor\/Conv2D:0",
      "pad_fill_mode" : 0,
      "pad_b" : 0,
      "pad_l" : 0,
      "top" : "BoxPredictor_5\/ClassPredictor\/BiasAdd:0",
      "K" : 128,
      "blob_biases" : 511,
      "name" : "BoxPredictor_5\/ClassPredictor\/Conv2D:0",
      "has_batch_norm" : 0,
      "type" : "convolution",
      "n_groups" : 1,
      "pad_t" : 0,
      "has_biases" : 1,
      "C" : 18,
      "bottom" : "BoxPredictor_5\/ClassPredictor_depthwise\/Relu6:0",
      "weights" : {
        "W_U8" : 513,
        "lut_to_float32" : 515
      },
      "Nx" : 1,
      "pad_mode" : 1,
      "pad_value" : 0,
      "Ny" : 1,
      "n_parallel" : 1
    },
    {
      "name" : "BoxPredictor_5\/Reshape_1:0",
      "weights" : {

      },
      "dst_w" : 6,
      "version" : 1,
      "dst_n" : 0,
      "type" : "reshape",
      "dst_h" : 1,
      "mode" : 1,
      "bottom" : "BoxPredictor_5\/ClassPredictor\/BiasAdd:0",
      "debug_info" : "BoxPredictor_5\/Reshape_1:0",
      "dst_seq" : 1,
      "dst_k" : 3,
      "top" : "BoxPredictor_5\/Reshape_1:0"
    },
    {
      "axis_h" : 1,
      "axis_w" : 2,
      "bottom" : "BoxPredictor_0\/Reshape_1:0",
      "axis_k" : 0,
      "axis_n" : 3,
      "axis_seq" : 4,
      "weights" : {

      },
      "debug_info" : "concat_1:0_0",
      "top" : "BoxPredictor_0\/Reshape_1:0_swap_W_C_0",
      "type" : "transpose",
      "name" : "concat_1:0_0"
    },
    {
      "axis_h" : 1,
      "axis_w" : 2,
      "bottom" : "BoxPredictor_1\/Reshape_1:0",
      "axis_k" : 0,
      "axis_n" : 3,
      "axis_seq" : 4,
      "weights" : {

      },
      "debug_info" : "concat_1:0_1",
      "top" : "BoxPredictor_1\/Reshape_1:0_swap_W_C_1",
      "type" : "transpose",
      "name" : "concat_1:0_1"
    },
    {
      "axis_h" : 1,
      "axis_w" : 2,
      "bottom" : "BoxPredictor_2\/Reshape_1:0",
      "axis_k" : 0,
      "axis_n" : 3,
      "axis_seq" : 4,
      "weights" : {

      },
      "debug_info" : "concat_1:0_2",
      "top" : "BoxPredictor_2\/Reshape_1:0_swap_W_C_2",
      "type" : "transpose",
      "name" : "concat_1:0_2"
    },
    {
      "axis_h" : 1,
      "axis_w" : 2,
      "bottom" : "BoxPredictor_3\/Reshape_1:0",
      "axis_k" : 0,
      "axis_n" : 3,
      "axis_seq" : 4,
      "weights" : {

      },
      "debug_info" : "concat_1:0_3",
      "top" : "BoxPredictor_3\/Reshape_1:0_swap_W_C_3",
      "type" : "transpose",
      "name" : "concat_1:0_3"
    },
    {
      "axis_h" : 1,
      "axis_w" : 2,
      "bottom" : "BoxPredictor_4\/Reshape_1:0",
      "axis_k" : 0,
      "axis_n" : 3,
      "axis_seq" : 4,
      "weights" : {

      },
      "debug_info" : "concat_1:0_4",
      "top" : "BoxPredictor_4\/Reshape_1:0_swap_W_C_4",
      "type" : "transpose",
      "name" : "concat_1:0_4"
    },
    {
      "axis_h" : 1,
      "axis_w" : 2,
      "bottom" : "BoxPredictor_5\/Reshape_1:0",
      "axis_k" : 0,
      "axis_n" : 3,
      "axis_seq" : 4,
      "weights" : {

      },
      "debug_info" : "concat_1:0_5",
      "top" : "BoxPredictor_5\/Reshape_1:0_swap_W_C_5",
      "type" : "transpose",
      "name" : "concat_1:0_5"
    },
    {
      "weights" : {

      },
      "debug_info" : "concat_1:0_concat",
      "top" : "concat_1:0_concat",
      "type" : "concat",
      "name" : "concat_1:0_concat",
      "bottom" : "BoxPredictor_0\/Reshape_1:0_swap_W_C_0,BoxPredictor_1\/Reshape_1:0_swap_W_C_1,BoxPredictor_2\/Reshape_1:0_swap_W_C_2,BoxPredictor_3\/Reshape_1:0_swap_W_C_3,BoxPredictor_4\/Reshape_1:0_swap_W_C_4,BoxPredictor_5\/Reshape_1:0_swap_W_C_5"
    },
    {
      "axis_h" : 1,
      "axis_w" : 2,
      "bottom" : "concat_1:0_concat",
      "axis_k" : 0,
      "axis_n" : 3,
      "axis_seq" : 4,
      "weights" : {

      },
      "debug_info" : "concat_1:0",
      "top" : "concat_1:0",
      "type" : "transpose",
      "name" : "concat_1:0"
    },
    {
      "bottom" : "concat_1:0",
      "alpha" : 0.99999898672103882,
      "operation" : 1,
      "weights" : {

      },
      "fused_relu" : 0,
      "debug_info" : "Postprocessor\/scale_logits:0",
      "top" : "Postprocessor\/scale_logits:0",
      "type" : "elementwise",
      "name" : "Postprocessor\/scale_logits:0",
      "beta" : 0
    },
    {
      "bottom" : "Postprocessor\/scale_logits:0",
      "weights" : {

      },
      "mode" : 3,
      "debug_info" : "Postprocessor\/convert_scores:0",
      "top" : "scores",
      "type" : "activation",
      "name" : "Postprocessor\/convert_scores:0",
      "attributes" : {
        "is_output" : 1
      }
    },
    {
      "pad_r" : 0,
      "fused_relu" : 1,
      "fused_tanh" : 0,
      "debug_info" : "BoxPredictor_5\/BoxEncodingPredictor_depthwise\/depthwise:0",
      "pad_fill_mode" : 0,
      "pad_b" : 0,
      "pad_l" : 0,
      "top" : "relu_BoxPredictor_5\/BoxEncodingPredictor_depthwise\/Relu6:0",
      "K" : 128,
      "blob_biases" : 517,
      "name" : "BoxPredictor_5\/BoxEncodingPredictor_depthwise\/depthwise:0",
      "has_batch_norm" : 0,
      "type" : "convolution",
      "n_groups" : 128,
      "pad_t" : 0,
      "has_biases" : 1,
      "C" : 128,
      "bottom" : "FeatureExtractor\/MobilenetV3\/layer_13_2_Conv2d_5_3x3_s2_128\/Relu6:0",
      "weights" : {
        "W_U8" : 519,
        "lut_to_float32" : 521
      },
      "Nx" : 3,
      "pad_mode" : 1,
      "pad_value" : 0,
      "Ny" : 3,
      "n_parallel" : 1
    },
    {
      "alpha" : -1,
      "bottom" : "relu_BoxPredictor_5\/BoxEncodingPredictor_depthwise\/Relu6:0",
      "weights" : {

      },
      "mode" : 6,
      "debug_info" : "relu_BoxPredictor_5\/BoxEncodingPredictor_depthwise\/Relu6:0_neg",
      "top" : "relu_BoxPredictor_5\/BoxEncodingPredictor_depthwise\/Relu6:0_neg",
      "type" : "activation",
      "name" : "relu_BoxPredictor_5\/BoxEncodingPredictor_depthwise\/Relu6:0_neg",
      "beta" : 0
    },
    {
      "bottom" : "relu_BoxPredictor_5\/BoxEncodingPredictor_depthwise\/Relu6:0_neg",
      "alpha" : -6,
      "operation" : 25,
      "weights" : {

      },
      "fused_relu" : 0,
      "debug_info" : "relu_BoxPredictor_5\/BoxEncodingPredictor_depthwise\/Relu6:0_clip",
      "top" : "relu_BoxPredictor_5\/BoxEncodingPredictor_depthwise\/Relu6:0_clip",
      "type" : "elementwise",
      "name" : "relu_BoxPredictor_5\/BoxEncodingPredictor_depthwise\/Relu6:0_clip",
      "beta" : 0
    },
    {
      "alpha" : -1,
      "bottom" : "relu_BoxPredictor_5\/BoxEncodingPredictor_depthwise\/Relu6:0_clip",
      "weights" : {

      },
      "mode" : 6,
      "debug_info" : "BoxPredictor_5\/BoxEncodingPredictor_depthwise\/Relu6:0",
      "top" : "BoxPredictor_5\/BoxEncodingPredictor_depthwise\/Relu6:0",
      "type" : "activation",
      "name" : "BoxPredictor_5\/BoxEncodingPredictor_depthwise\/Relu6:0",
      "beta" : 0
    },
    {
      "pad_r" : 0,
      "fused_relu" : 0,
      "fused_tanh" : 0,
      "debug_info" : "BoxPredictor_5\/BoxEncodingPredictor\/Conv2D:0",
      "pad_fill_mode" : 0,
      "pad_b" : 0,
      "pad_l" : 0,
      "top" : "BoxPredictor_5\/BoxEncodingPredictor\/BiasAdd:0",
      "K" : 128,
      "blob_biases" : 523,
      "name" : "BoxPredictor_5\/BoxEncodingPredictor\/Conv2D:0",
      "has_batch_norm" : 0,
      "type" : "convolution",
      "n_groups" : 1,
      "pad_t" : 0,
      "has_biases" : 1,
      "C" : 24,
      "bottom" : "BoxPredictor_5\/BoxEncodingPredictor_depthwise\/Relu6:0",
      "weights" : {
        "W_U8" : 525,
        "lut_to_float32" : 527
      },
      "Nx" : 1,
      "pad_mode" : 1,
      "pad_value" : 0,
      "Ny" : 1,
      "n_parallel" : 1
    },
    {
      "name" : "BoxPredictor_5\/Reshape:0",
      "weights" : {

      },
      "dst_w" : 1,
      "version" : 1,
      "dst_n" : 0,
      "type" : "reshape",
      "dst_h" : 6,
      "mode" : 1,
      "bottom" : "BoxPredictor_5\/BoxEncodingPredictor\/BiasAdd:0",
      "debug_info" : "BoxPredictor_5\/Reshape:0",
      "dst_seq" : 1,
      "dst_k" : 4,
      "top" : "BoxPredictor_5\/Reshape:0"
    },
    {
      "axis_h" : 2,
      "axis_w" : 0,
      "bottom" : "BoxPredictor_0\/Reshape:0",
      "axis_k" : 1,
      "axis_n" : 3,
      "axis_seq" : 4,
      "weights" : {

      },
      "debug_info" : "concat:0_0",
      "top" : "BoxPredictor_0\/Reshape:0_swap_H_C_0",
      "type" : "transpose",
      "name" : "concat:0_0"
    },
    {
      "axis_h" : 2,
      "axis_w" : 0,
      "bottom" : "BoxPredictor_1\/Reshape:0",
      "axis_k" : 1,
      "axis_n" : 3,
      "axis_seq" : 4,
      "weights" : {

      },
      "debug_info" : "concat:0_1",
      "top" : "BoxPredictor_1\/Reshape:0_swap_H_C_1",
      "type" : "transpose",
      "name" : "concat:0_1"
    },
    {
      "axis_h" : 2,
      "axis_w" : 0,
      "bottom" : "BoxPredictor_2\/Reshape:0",
      "axis_k" : 1,
      "axis_n" : 3,
      "axis_seq" : 4,
      "weights" : {

      },
      "debug_info" : "concat:0_2",
      "top" : "BoxPredictor_2\/Reshape:0_swap_H_C_2",
      "type" : "transpose",
      "name" : "concat:0_2"
    },
    {
      "axis_h" : 2,
      "axis_w" : 0,
      "bottom" : "BoxPredictor_3\/Reshape:0",
      "axis_k" : 1,
      "axis_n" : 3,
      "axis_seq" : 4,
      "weights" : {

      },
      "debug_info" : "concat:0_3",
      "top" : "BoxPredictor_3\/Reshape:0_swap_H_C_3",
      "type" : "transpose",
      "name" : "concat:0_3"
    },
    {
      "axis_h" : 2,
      "axis_w" : 0,
      "bottom" : "BoxPredictor_4\/Reshape:0",
      "axis_k" : 1,
      "axis_n" : 3,
      "axis_seq" : 4,
      "weights" : {

      },
      "debug_info" : "concat:0_4",
      "top" : "BoxPredictor_4\/Reshape:0_swap_H_C_4",
      "type" : "transpose",
      "name" : "concat:0_4"
    },
    {
      "axis_h" : 2,
      "axis_w" : 0,
      "bottom" : "BoxPredictor_5\/Reshape:0",
      "axis_k" : 1,
      "axis_n" : 3,
      "axis_seq" : 4,
      "weights" : {

      },
      "debug_info" : "concat:0_5",
      "top" : "BoxPredictor_5\/Reshape:0_swap_H_C_5",
      "type" : "transpose",
      "name" : "concat:0_5"
    },
    {
      "weights" : {

      },
      "debug_info" : "concat:0_concat",
      "top" : "concat:0_concat",
      "type" : "concat",
      "name" : "concat:0_concat",
      "bottom" : "BoxPredictor_0\/Reshape:0_swap_H_C_0,BoxPredictor_1\/Reshape:0_swap_H_C_1,BoxPredictor_2\/Reshape:0_swap_H_C_2,BoxPredictor_3\/Reshape:0_swap_H_C_3,BoxPredictor_4\/Reshape:0_swap_H_C_4,BoxPredictor_5\/Reshape:0_swap_H_C_5"
    },
    {
      "axis_seq" : 4,
      "name" : "concat:0",
      "axis_n" : 3,
      "axis_h" : 2,
      "type" : "transpose",
      "attributes" : {
        "is_output" : 1
      },
      "bottom" : "concat:0_concat",
      "axis_w" : 0,
      "axis_k" : 1,
      "debug_info" : "concat:0",
      "weights" : {

      },
      "top" : "boxes"
    }
  ],
  "transform_params" : {
    "image" : {
      "bias_a" : 0,
      "bias_g" : -1,
      "bias_r" : -1,
      "bias_b" : -1,
      "center_mean" : 0,
      "is_network_bgr" : 0,
      "scale" : 0.0078431377187371254
    }
  },
  "storage" : "model.espresso.weights",
  "metadata_in_weights" : [

  ],
  "properties" : {

  },
  "analyses" : {

  },
  "format_version" : 200
}